<?xml version="1.0" ?>
<net batch="1" name="frozen_model" version="5">
	<layers>
		<layer id="0" name="input_2" precision="FP16" type="Input">
			<output>
				<port id="0">
					<dim>1</dim>
					<dim>3</dim>
					<dim>224</dim>
					<dim>224</dim>
				</port>
			</output>
		</layer>
		<layer id="1" name="conv2d_94/Conv2D" precision="FP16" type="Convolution">
			<data auto_pad="valid" dilations="1,1" group="1" kernel="3,3" output="32" pads_begin="0,0" pads_end="0,0" strides="2,2"/>
			<input>
				<port id="0">
					<dim>1</dim>
					<dim>3</dim>
					<dim>224</dim>
					<dim>224</dim>
				</port>
			</input>
			<output>
				<port id="3">
					<dim>1</dim>
					<dim>32</dim>
					<dim>111</dim>
					<dim>111</dim>
				</port>
			</output>
			<blobs>
				<weights offset="0" size="1728"/>
				<biases offset="1728" size="64"/>
			</blobs>
		</layer>
		<layer id="2" name="activation_94/Relu" precision="FP16" type="ReLU">
			<input>
				<port id="0">
					<dim>1</dim>
					<dim>32</dim>
					<dim>111</dim>
					<dim>111</dim>
				</port>
			</input>
			<output>
				<port id="1">
					<dim>1</dim>
					<dim>32</dim>
					<dim>111</dim>
					<dim>111</dim>
				</port>
			</output>
		</layer>
		<layer id="3" name="conv2d_95/Conv2D" precision="FP16" type="Convolution">
			<data auto_pad="valid" dilations="1,1" group="1" kernel="3,3" output="32" pads_begin="0,0" pads_end="0,0" strides="1,1"/>
			<input>
				<port id="0">
					<dim>1</dim>
					<dim>32</dim>
					<dim>111</dim>
					<dim>111</dim>
				</port>
			</input>
			<output>
				<port id="3">
					<dim>1</dim>
					<dim>32</dim>
					<dim>109</dim>
					<dim>109</dim>
				</port>
			</output>
			<blobs>
				<weights offset="1792" size="18432"/>
				<biases offset="20224" size="64"/>
			</blobs>
		</layer>
		<layer id="4" name="activation_95/Relu" precision="FP16" type="ReLU">
			<input>
				<port id="0">
					<dim>1</dim>
					<dim>32</dim>
					<dim>109</dim>
					<dim>109</dim>
				</port>
			</input>
			<output>
				<port id="1">
					<dim>1</dim>
					<dim>32</dim>
					<dim>109</dim>
					<dim>109</dim>
				</port>
			</output>
		</layer>
		<layer id="5" name="conv2d_96/Conv2D" precision="FP16" type="Convolution">
			<data auto_pad="same_upper" dilations="1,1" group="1" kernel="3,3" output="64" pads_begin="1,1" pads_end="1,1" strides="1,1"/>
			<input>
				<port id="0">
					<dim>1</dim>
					<dim>32</dim>
					<dim>109</dim>
					<dim>109</dim>
				</port>
			</input>
			<output>
				<port id="3">
					<dim>1</dim>
					<dim>64</dim>
					<dim>109</dim>
					<dim>109</dim>
				</port>
			</output>
			<blobs>
				<weights offset="20288" size="36864"/>
				<biases offset="57152" size="128"/>
			</blobs>
		</layer>
		<layer id="6" name="activation_96/Relu" precision="FP16" type="ReLU">
			<input>
				<port id="0">
					<dim>1</dim>
					<dim>64</dim>
					<dim>109</dim>
					<dim>109</dim>
				</port>
			</input>
			<output>
				<port id="1">
					<dim>1</dim>
					<dim>64</dim>
					<dim>109</dim>
					<dim>109</dim>
				</port>
			</output>
		</layer>
		<layer id="7" name="max_pooling2d_4/MaxPool" precision="FP16" type="Pooling">
			<data auto_pad="valid" exclude-pad="true" kernel="3,3" pads_begin="0,0" pads_end="0,0" pool-method="max" strides="2,2"/>
			<input>
				<port id="0">
					<dim>1</dim>
					<dim>64</dim>
					<dim>109</dim>
					<dim>109</dim>
				</port>
			</input>
			<output>
				<port id="1">
					<dim>1</dim>
					<dim>64</dim>
					<dim>54</dim>
					<dim>54</dim>
				</port>
			</output>
		</layer>
		<layer id="8" name="conv2d_97/Conv2D" precision="FP16" type="Convolution">
			<data auto_pad="valid" dilations="1,1" group="1" kernel="1,1" output="80" pads_begin="0,0" pads_end="0,0" strides="1,1"/>
			<input>
				<port id="0">
					<dim>1</dim>
					<dim>64</dim>
					<dim>54</dim>
					<dim>54</dim>
				</port>
			</input>
			<output>
				<port id="3">
					<dim>1</dim>
					<dim>80</dim>
					<dim>54</dim>
					<dim>54</dim>
				</port>
			</output>
			<blobs>
				<weights offset="57280" size="10240"/>
				<biases offset="67520" size="160"/>
			</blobs>
		</layer>
		<layer id="9" name="activation_97/Relu" precision="FP16" type="ReLU">
			<input>
				<port id="0">
					<dim>1</dim>
					<dim>80</dim>
					<dim>54</dim>
					<dim>54</dim>
				</port>
			</input>
			<output>
				<port id="1">
					<dim>1</dim>
					<dim>80</dim>
					<dim>54</dim>
					<dim>54</dim>
				</port>
			</output>
		</layer>
		<layer id="10" name="conv2d_98/Conv2D" precision="FP16" type="Convolution">
			<data auto_pad="valid" dilations="1,1" group="1" kernel="3,3" output="192" pads_begin="0,0" pads_end="0,0" strides="1,1"/>
			<input>
				<port id="0">
					<dim>1</dim>
					<dim>80</dim>
					<dim>54</dim>
					<dim>54</dim>
				</port>
			</input>
			<output>
				<port id="3">
					<dim>1</dim>
					<dim>192</dim>
					<dim>52</dim>
					<dim>52</dim>
				</port>
			</output>
			<blobs>
				<weights offset="67680" size="276480"/>
				<biases offset="344160" size="384"/>
			</blobs>
		</layer>
		<layer id="11" name="activation_98/Relu" precision="FP16" type="ReLU">
			<input>
				<port id="0">
					<dim>1</dim>
					<dim>192</dim>
					<dim>52</dim>
					<dim>52</dim>
				</port>
			</input>
			<output>
				<port id="1">
					<dim>1</dim>
					<dim>192</dim>
					<dim>52</dim>
					<dim>52</dim>
				</port>
			</output>
		</layer>
		<layer id="12" name="max_pooling2d_5/MaxPool" precision="FP16" type="Pooling">
			<data auto_pad="valid" exclude-pad="true" kernel="3,3" pads_begin="0,0" pads_end="0,0" pool-method="max" strides="2,2"/>
			<input>
				<port id="0">
					<dim>1</dim>
					<dim>192</dim>
					<dim>52</dim>
					<dim>52</dim>
				</port>
			</input>
			<output>
				<port id="1">
					<dim>1</dim>
					<dim>192</dim>
					<dim>25</dim>
					<dim>25</dim>
				</port>
			</output>
		</layer>
		<layer id="13" name="conv2d_99/Conv2D" precision="FP16" type="Convolution">
			<data auto_pad="same_upper" dilations="1,1" group="1" kernel="1,1" output="64" pads_begin="0,0" pads_end="0,0" strides="1,1"/>
			<input>
				<port id="0">
					<dim>1</dim>
					<dim>192</dim>
					<dim>25</dim>
					<dim>25</dim>
				</port>
			</input>
			<output>
				<port id="3">
					<dim>1</dim>
					<dim>64</dim>
					<dim>25</dim>
					<dim>25</dim>
				</port>
			</output>
			<blobs>
				<weights offset="344544" size="24576"/>
				<biases offset="369120" size="128"/>
			</blobs>
		</layer>
		<layer id="14" name="activation_99/Relu" precision="FP16" type="ReLU">
			<input>
				<port id="0">
					<dim>1</dim>
					<dim>64</dim>
					<dim>25</dim>
					<dim>25</dim>
				</port>
			</input>
			<output>
				<port id="1">
					<dim>1</dim>
					<dim>64</dim>
					<dim>25</dim>
					<dim>25</dim>
				</port>
			</output>
		</layer>
		<layer id="15" name="conv2d_100/Conv2D" precision="FP16" type="Convolution">
			<data auto_pad="same_upper" dilations="1,1" group="1" kernel="1,1" output="48" pads_begin="0,0" pads_end="0,0" strides="1,1"/>
			<input>
				<port id="0">
					<dim>1</dim>
					<dim>192</dim>
					<dim>25</dim>
					<dim>25</dim>
				</port>
			</input>
			<output>
				<port id="3">
					<dim>1</dim>
					<dim>48</dim>
					<dim>25</dim>
					<dim>25</dim>
				</port>
			</output>
			<blobs>
				<weights offset="369248" size="18432"/>
				<biases offset="387680" size="96"/>
			</blobs>
		</layer>
		<layer id="16" name="activation_100/Relu" precision="FP16" type="ReLU">
			<input>
				<port id="0">
					<dim>1</dim>
					<dim>48</dim>
					<dim>25</dim>
					<dim>25</dim>
				</port>
			</input>
			<output>
				<port id="1">
					<dim>1</dim>
					<dim>48</dim>
					<dim>25</dim>
					<dim>25</dim>
				</port>
			</output>
		</layer>
		<layer id="17" name="conv2d_101/Conv2D" precision="FP16" type="Convolution">
			<data auto_pad="same_upper" dilations="1,1" group="1" kernel="5,5" output="64" pads_begin="2,2" pads_end="2,2" strides="1,1"/>
			<input>
				<port id="0">
					<dim>1</dim>
					<dim>48</dim>
					<dim>25</dim>
					<dim>25</dim>
				</port>
			</input>
			<output>
				<port id="3">
					<dim>1</dim>
					<dim>64</dim>
					<dim>25</dim>
					<dim>25</dim>
				</port>
			</output>
			<blobs>
				<weights offset="387776" size="153600"/>
				<biases offset="541376" size="128"/>
			</blobs>
		</layer>
		<layer id="18" name="activation_101/Relu" precision="FP16" type="ReLU">
			<input>
				<port id="0">
					<dim>1</dim>
					<dim>64</dim>
					<dim>25</dim>
					<dim>25</dim>
				</port>
			</input>
			<output>
				<port id="1">
					<dim>1</dim>
					<dim>64</dim>
					<dim>25</dim>
					<dim>25</dim>
				</port>
			</output>
		</layer>
		<layer id="19" name="conv2d_102/Conv2D" precision="FP16" type="Convolution">
			<data auto_pad="same_upper" dilations="1,1" group="1" kernel="1,1" output="64" pads_begin="0,0" pads_end="0,0" strides="1,1"/>
			<input>
				<port id="0">
					<dim>1</dim>
					<dim>192</dim>
					<dim>25</dim>
					<dim>25</dim>
				</port>
			</input>
			<output>
				<port id="3">
					<dim>1</dim>
					<dim>64</dim>
					<dim>25</dim>
					<dim>25</dim>
				</port>
			</output>
			<blobs>
				<weights offset="541504" size="24576"/>
				<biases offset="566080" size="128"/>
			</blobs>
		</layer>
		<layer id="20" name="activation_102/Relu" precision="FP16" type="ReLU">
			<input>
				<port id="0">
					<dim>1</dim>
					<dim>64</dim>
					<dim>25</dim>
					<dim>25</dim>
				</port>
			</input>
			<output>
				<port id="1">
					<dim>1</dim>
					<dim>64</dim>
					<dim>25</dim>
					<dim>25</dim>
				</port>
			</output>
		</layer>
		<layer id="21" name="conv2d_103/Conv2D" precision="FP16" type="Convolution">
			<data auto_pad="same_upper" dilations="1,1" group="1" kernel="3,3" output="96" pads_begin="1,1" pads_end="1,1" strides="1,1"/>
			<input>
				<port id="0">
					<dim>1</dim>
					<dim>64</dim>
					<dim>25</dim>
					<dim>25</dim>
				</port>
			</input>
			<output>
				<port id="3">
					<dim>1</dim>
					<dim>96</dim>
					<dim>25</dim>
					<dim>25</dim>
				</port>
			</output>
			<blobs>
				<weights offset="566208" size="110592"/>
				<biases offset="676800" size="192"/>
			</blobs>
		</layer>
		<layer id="22" name="activation_103/Relu" precision="FP16" type="ReLU">
			<input>
				<port id="0">
					<dim>1</dim>
					<dim>96</dim>
					<dim>25</dim>
					<dim>25</dim>
				</port>
			</input>
			<output>
				<port id="1">
					<dim>1</dim>
					<dim>96</dim>
					<dim>25</dim>
					<dim>25</dim>
				</port>
			</output>
		</layer>
		<layer id="23" name="conv2d_104/Conv2D" precision="FP16" type="Convolution">
			<data auto_pad="same_upper" dilations="1,1" group="1" kernel="3,3" output="96" pads_begin="1,1" pads_end="1,1" strides="1,1"/>
			<input>
				<port id="0">
					<dim>1</dim>
					<dim>96</dim>
					<dim>25</dim>
					<dim>25</dim>
				</port>
			</input>
			<output>
				<port id="3">
					<dim>1</dim>
					<dim>96</dim>
					<dim>25</dim>
					<dim>25</dim>
				</port>
			</output>
			<blobs>
				<weights offset="676992" size="165888"/>
				<biases offset="842880" size="192"/>
			</blobs>
		</layer>
		<layer id="24" name="activation_104/Relu" precision="FP16" type="ReLU">
			<input>
				<port id="0">
					<dim>1</dim>
					<dim>96</dim>
					<dim>25</dim>
					<dim>25</dim>
				</port>
			</input>
			<output>
				<port id="1">
					<dim>1</dim>
					<dim>96</dim>
					<dim>25</dim>
					<dim>25</dim>
				</port>
			</output>
		</layer>
		<layer id="25" name="average_pooling2d_9/AvgPool" precision="FP16" type="Pooling">
			<data auto_pad="same_upper" exclude-pad="true" kernel="3,3" pads_begin="1,1" pads_end="1,1" pool-method="avg" strides="1,1"/>
			<input>
				<port id="0">
					<dim>1</dim>
					<dim>192</dim>
					<dim>25</dim>
					<dim>25</dim>
				</port>
			</input>
			<output>
				<port id="1">
					<dim>1</dim>
					<dim>192</dim>
					<dim>25</dim>
					<dim>25</dim>
				</port>
			</output>
		</layer>
		<layer id="26" name="conv2d_105/Conv2D" precision="FP16" type="Convolution">
			<data auto_pad="same_upper" dilations="1,1" group="1" kernel="1,1" output="32" pads_begin="0,0" pads_end="0,0" strides="1,1"/>
			<input>
				<port id="0">
					<dim>1</dim>
					<dim>192</dim>
					<dim>25</dim>
					<dim>25</dim>
				</port>
			</input>
			<output>
				<port id="3">
					<dim>1</dim>
					<dim>32</dim>
					<dim>25</dim>
					<dim>25</dim>
				</port>
			</output>
			<blobs>
				<weights offset="843072" size="12288"/>
				<biases offset="855360" size="64"/>
			</blobs>
		</layer>
		<layer id="27" name="activation_105/Relu" precision="FP16" type="ReLU">
			<input>
				<port id="0">
					<dim>1</dim>
					<dim>32</dim>
					<dim>25</dim>
					<dim>25</dim>
				</port>
			</input>
			<output>
				<port id="1">
					<dim>1</dim>
					<dim>32</dim>
					<dim>25</dim>
					<dim>25</dim>
				</port>
			</output>
		</layer>
		<layer id="28" name="mixed0/concat" precision="FP16" type="Concat">
			<data axis="1"/>
			<input>
				<port id="0">
					<dim>1</dim>
					<dim>64</dim>
					<dim>25</dim>
					<dim>25</dim>
				</port>
				<port id="1">
					<dim>1</dim>
					<dim>64</dim>
					<dim>25</dim>
					<dim>25</dim>
				</port>
				<port id="2">
					<dim>1</dim>
					<dim>96</dim>
					<dim>25</dim>
					<dim>25</dim>
				</port>
				<port id="3">
					<dim>1</dim>
					<dim>32</dim>
					<dim>25</dim>
					<dim>25</dim>
				</port>
			</input>
			<output>
				<port id="4">
					<dim>1</dim>
					<dim>256</dim>
					<dim>25</dim>
					<dim>25</dim>
				</port>
			</output>
		</layer>
		<layer id="29" name="conv2d_106/Conv2D" precision="FP16" type="Convolution">
			<data auto_pad="same_upper" dilations="1,1" group="1" kernel="1,1" output="64" pads_begin="0,0" pads_end="0,0" strides="1,1"/>
			<input>
				<port id="0">
					<dim>1</dim>
					<dim>256</dim>
					<dim>25</dim>
					<dim>25</dim>
				</port>
			</input>
			<output>
				<port id="3">
					<dim>1</dim>
					<dim>64</dim>
					<dim>25</dim>
					<dim>25</dim>
				</port>
			</output>
			<blobs>
				<weights offset="855424" size="32768"/>
				<biases offset="888192" size="128"/>
			</blobs>
		</layer>
		<layer id="30" name="activation_106/Relu" precision="FP16" type="ReLU">
			<input>
				<port id="0">
					<dim>1</dim>
					<dim>64</dim>
					<dim>25</dim>
					<dim>25</dim>
				</port>
			</input>
			<output>
				<port id="1">
					<dim>1</dim>
					<dim>64</dim>
					<dim>25</dim>
					<dim>25</dim>
				</port>
			</output>
		</layer>
		<layer id="31" name="conv2d_107/Conv2D" precision="FP16" type="Convolution">
			<data auto_pad="same_upper" dilations="1,1" group="1" kernel="1,1" output="48" pads_begin="0,0" pads_end="0,0" strides="1,1"/>
			<input>
				<port id="0">
					<dim>1</dim>
					<dim>256</dim>
					<dim>25</dim>
					<dim>25</dim>
				</port>
			</input>
			<output>
				<port id="3">
					<dim>1</dim>
					<dim>48</dim>
					<dim>25</dim>
					<dim>25</dim>
				</port>
			</output>
			<blobs>
				<weights offset="888320" size="24576"/>
				<biases offset="912896" size="96"/>
			</blobs>
		</layer>
		<layer id="32" name="activation_107/Relu" precision="FP16" type="ReLU">
			<input>
				<port id="0">
					<dim>1</dim>
					<dim>48</dim>
					<dim>25</dim>
					<dim>25</dim>
				</port>
			</input>
			<output>
				<port id="1">
					<dim>1</dim>
					<dim>48</dim>
					<dim>25</dim>
					<dim>25</dim>
				</port>
			</output>
		</layer>
		<layer id="33" name="conv2d_108/Conv2D" precision="FP16" type="Convolution">
			<data auto_pad="same_upper" dilations="1,1" group="1" kernel="5,5" output="64" pads_begin="2,2" pads_end="2,2" strides="1,1"/>
			<input>
				<port id="0">
					<dim>1</dim>
					<dim>48</dim>
					<dim>25</dim>
					<dim>25</dim>
				</port>
			</input>
			<output>
				<port id="3">
					<dim>1</dim>
					<dim>64</dim>
					<dim>25</dim>
					<dim>25</dim>
				</port>
			</output>
			<blobs>
				<weights offset="912992" size="153600"/>
				<biases offset="1066592" size="128"/>
			</blobs>
		</layer>
		<layer id="34" name="activation_108/Relu" precision="FP16" type="ReLU">
			<input>
				<port id="0">
					<dim>1</dim>
					<dim>64</dim>
					<dim>25</dim>
					<dim>25</dim>
				</port>
			</input>
			<output>
				<port id="1">
					<dim>1</dim>
					<dim>64</dim>
					<dim>25</dim>
					<dim>25</dim>
				</port>
			</output>
		</layer>
		<layer id="35" name="conv2d_109/Conv2D" precision="FP16" type="Convolution">
			<data auto_pad="same_upper" dilations="1,1" group="1" kernel="1,1" output="64" pads_begin="0,0" pads_end="0,0" strides="1,1"/>
			<input>
				<port id="0">
					<dim>1</dim>
					<dim>256</dim>
					<dim>25</dim>
					<dim>25</dim>
				</port>
			</input>
			<output>
				<port id="3">
					<dim>1</dim>
					<dim>64</dim>
					<dim>25</dim>
					<dim>25</dim>
				</port>
			</output>
			<blobs>
				<weights offset="1066720" size="32768"/>
				<biases offset="1099488" size="128"/>
			</blobs>
		</layer>
		<layer id="36" name="activation_109/Relu" precision="FP16" type="ReLU">
			<input>
				<port id="0">
					<dim>1</dim>
					<dim>64</dim>
					<dim>25</dim>
					<dim>25</dim>
				</port>
			</input>
			<output>
				<port id="1">
					<dim>1</dim>
					<dim>64</dim>
					<dim>25</dim>
					<dim>25</dim>
				</port>
			</output>
		</layer>
		<layer id="37" name="conv2d_110/Conv2D" precision="FP16" type="Convolution">
			<data auto_pad="same_upper" dilations="1,1" group="1" kernel="3,3" output="96" pads_begin="1,1" pads_end="1,1" strides="1,1"/>
			<input>
				<port id="0">
					<dim>1</dim>
					<dim>64</dim>
					<dim>25</dim>
					<dim>25</dim>
				</port>
			</input>
			<output>
				<port id="3">
					<dim>1</dim>
					<dim>96</dim>
					<dim>25</dim>
					<dim>25</dim>
				</port>
			</output>
			<blobs>
				<weights offset="1099616" size="110592"/>
				<biases offset="1210208" size="192"/>
			</blobs>
		</layer>
		<layer id="38" name="activation_110/Relu" precision="FP16" type="ReLU">
			<input>
				<port id="0">
					<dim>1</dim>
					<dim>96</dim>
					<dim>25</dim>
					<dim>25</dim>
				</port>
			</input>
			<output>
				<port id="1">
					<dim>1</dim>
					<dim>96</dim>
					<dim>25</dim>
					<dim>25</dim>
				</port>
			</output>
		</layer>
		<layer id="39" name="conv2d_111/Conv2D" precision="FP16" type="Convolution">
			<data auto_pad="same_upper" dilations="1,1" group="1" kernel="3,3" output="96" pads_begin="1,1" pads_end="1,1" strides="1,1"/>
			<input>
				<port id="0">
					<dim>1</dim>
					<dim>96</dim>
					<dim>25</dim>
					<dim>25</dim>
				</port>
			</input>
			<output>
				<port id="3">
					<dim>1</dim>
					<dim>96</dim>
					<dim>25</dim>
					<dim>25</dim>
				</port>
			</output>
			<blobs>
				<weights offset="1210400" size="165888"/>
				<biases offset="1376288" size="192"/>
			</blobs>
		</layer>
		<layer id="40" name="activation_111/Relu" precision="FP16" type="ReLU">
			<input>
				<port id="0">
					<dim>1</dim>
					<dim>96</dim>
					<dim>25</dim>
					<dim>25</dim>
				</port>
			</input>
			<output>
				<port id="1">
					<dim>1</dim>
					<dim>96</dim>
					<dim>25</dim>
					<dim>25</dim>
				</port>
			</output>
		</layer>
		<layer id="41" name="average_pooling2d_10/AvgPool" precision="FP16" type="Pooling">
			<data auto_pad="same_upper" exclude-pad="true" kernel="3,3" pads_begin="1,1" pads_end="1,1" pool-method="avg" strides="1,1"/>
			<input>
				<port id="0">
					<dim>1</dim>
					<dim>256</dim>
					<dim>25</dim>
					<dim>25</dim>
				</port>
			</input>
			<output>
				<port id="1">
					<dim>1</dim>
					<dim>256</dim>
					<dim>25</dim>
					<dim>25</dim>
				</port>
			</output>
		</layer>
		<layer id="42" name="conv2d_112/Conv2D" precision="FP16" type="Convolution">
			<data auto_pad="same_upper" dilations="1,1" group="1" kernel="1,1" output="64" pads_begin="0,0" pads_end="0,0" strides="1,1"/>
			<input>
				<port id="0">
					<dim>1</dim>
					<dim>256</dim>
					<dim>25</dim>
					<dim>25</dim>
				</port>
			</input>
			<output>
				<port id="3">
					<dim>1</dim>
					<dim>64</dim>
					<dim>25</dim>
					<dim>25</dim>
				</port>
			</output>
			<blobs>
				<weights offset="1376480" size="32768"/>
				<biases offset="1409248" size="128"/>
			</blobs>
		</layer>
		<layer id="43" name="activation_112/Relu" precision="FP16" type="ReLU">
			<input>
				<port id="0">
					<dim>1</dim>
					<dim>64</dim>
					<dim>25</dim>
					<dim>25</dim>
				</port>
			</input>
			<output>
				<port id="1">
					<dim>1</dim>
					<dim>64</dim>
					<dim>25</dim>
					<dim>25</dim>
				</port>
			</output>
		</layer>
		<layer id="44" name="mixed1/concat" precision="FP16" type="Concat">
			<data axis="1"/>
			<input>
				<port id="0">
					<dim>1</dim>
					<dim>64</dim>
					<dim>25</dim>
					<dim>25</dim>
				</port>
				<port id="1">
					<dim>1</dim>
					<dim>64</dim>
					<dim>25</dim>
					<dim>25</dim>
				</port>
				<port id="2">
					<dim>1</dim>
					<dim>96</dim>
					<dim>25</dim>
					<dim>25</dim>
				</port>
				<port id="3">
					<dim>1</dim>
					<dim>64</dim>
					<dim>25</dim>
					<dim>25</dim>
				</port>
			</input>
			<output>
				<port id="4">
					<dim>1</dim>
					<dim>288</dim>
					<dim>25</dim>
					<dim>25</dim>
				</port>
			</output>
		</layer>
		<layer id="45" name="conv2d_113/Conv2D" precision="FP16" type="Convolution">
			<data auto_pad="same_upper" dilations="1,1" group="1" kernel="1,1" output="64" pads_begin="0,0" pads_end="0,0" strides="1,1"/>
			<input>
				<port id="0">
					<dim>1</dim>
					<dim>288</dim>
					<dim>25</dim>
					<dim>25</dim>
				</port>
			</input>
			<output>
				<port id="3">
					<dim>1</dim>
					<dim>64</dim>
					<dim>25</dim>
					<dim>25</dim>
				</port>
			</output>
			<blobs>
				<weights offset="1409376" size="36864"/>
				<biases offset="1446240" size="128"/>
			</blobs>
		</layer>
		<layer id="46" name="activation_113/Relu" precision="FP16" type="ReLU">
			<input>
				<port id="0">
					<dim>1</dim>
					<dim>64</dim>
					<dim>25</dim>
					<dim>25</dim>
				</port>
			</input>
			<output>
				<port id="1">
					<dim>1</dim>
					<dim>64</dim>
					<dim>25</dim>
					<dim>25</dim>
				</port>
			</output>
		</layer>
		<layer id="47" name="conv2d_114/Conv2D" precision="FP16" type="Convolution">
			<data auto_pad="same_upper" dilations="1,1" group="1" kernel="1,1" output="48" pads_begin="0,0" pads_end="0,0" strides="1,1"/>
			<input>
				<port id="0">
					<dim>1</dim>
					<dim>288</dim>
					<dim>25</dim>
					<dim>25</dim>
				</port>
			</input>
			<output>
				<port id="3">
					<dim>1</dim>
					<dim>48</dim>
					<dim>25</dim>
					<dim>25</dim>
				</port>
			</output>
			<blobs>
				<weights offset="1446368" size="27648"/>
				<biases offset="1474016" size="96"/>
			</blobs>
		</layer>
		<layer id="48" name="activation_114/Relu" precision="FP16" type="ReLU">
			<input>
				<port id="0">
					<dim>1</dim>
					<dim>48</dim>
					<dim>25</dim>
					<dim>25</dim>
				</port>
			</input>
			<output>
				<port id="1">
					<dim>1</dim>
					<dim>48</dim>
					<dim>25</dim>
					<dim>25</dim>
				</port>
			</output>
		</layer>
		<layer id="49" name="conv2d_115/Conv2D" precision="FP16" type="Convolution">
			<data auto_pad="same_upper" dilations="1,1" group="1" kernel="5,5" output="64" pads_begin="2,2" pads_end="2,2" strides="1,1"/>
			<input>
				<port id="0">
					<dim>1</dim>
					<dim>48</dim>
					<dim>25</dim>
					<dim>25</dim>
				</port>
			</input>
			<output>
				<port id="3">
					<dim>1</dim>
					<dim>64</dim>
					<dim>25</dim>
					<dim>25</dim>
				</port>
			</output>
			<blobs>
				<weights offset="1474112" size="153600"/>
				<biases offset="1627712" size="128"/>
			</blobs>
		</layer>
		<layer id="50" name="activation_115/Relu" precision="FP16" type="ReLU">
			<input>
				<port id="0">
					<dim>1</dim>
					<dim>64</dim>
					<dim>25</dim>
					<dim>25</dim>
				</port>
			</input>
			<output>
				<port id="1">
					<dim>1</dim>
					<dim>64</dim>
					<dim>25</dim>
					<dim>25</dim>
				</port>
			</output>
		</layer>
		<layer id="51" name="conv2d_116/Conv2D" precision="FP16" type="Convolution">
			<data auto_pad="same_upper" dilations="1,1" group="1" kernel="1,1" output="64" pads_begin="0,0" pads_end="0,0" strides="1,1"/>
			<input>
				<port id="0">
					<dim>1</dim>
					<dim>288</dim>
					<dim>25</dim>
					<dim>25</dim>
				</port>
			</input>
			<output>
				<port id="3">
					<dim>1</dim>
					<dim>64</dim>
					<dim>25</dim>
					<dim>25</dim>
				</port>
			</output>
			<blobs>
				<weights offset="1627840" size="36864"/>
				<biases offset="1664704" size="128"/>
			</blobs>
		</layer>
		<layer id="52" name="activation_116/Relu" precision="FP16" type="ReLU">
			<input>
				<port id="0">
					<dim>1</dim>
					<dim>64</dim>
					<dim>25</dim>
					<dim>25</dim>
				</port>
			</input>
			<output>
				<port id="1">
					<dim>1</dim>
					<dim>64</dim>
					<dim>25</dim>
					<dim>25</dim>
				</port>
			</output>
		</layer>
		<layer id="53" name="conv2d_117/Conv2D" precision="FP16" type="Convolution">
			<data auto_pad="same_upper" dilations="1,1" group="1" kernel="3,3" output="96" pads_begin="1,1" pads_end="1,1" strides="1,1"/>
			<input>
				<port id="0">
					<dim>1</dim>
					<dim>64</dim>
					<dim>25</dim>
					<dim>25</dim>
				</port>
			</input>
			<output>
				<port id="3">
					<dim>1</dim>
					<dim>96</dim>
					<dim>25</dim>
					<dim>25</dim>
				</port>
			</output>
			<blobs>
				<weights offset="1664832" size="110592"/>
				<biases offset="1775424" size="192"/>
			</blobs>
		</layer>
		<layer id="54" name="activation_117/Relu" precision="FP16" type="ReLU">
			<input>
				<port id="0">
					<dim>1</dim>
					<dim>96</dim>
					<dim>25</dim>
					<dim>25</dim>
				</port>
			</input>
			<output>
				<port id="1">
					<dim>1</dim>
					<dim>96</dim>
					<dim>25</dim>
					<dim>25</dim>
				</port>
			</output>
		</layer>
		<layer id="55" name="conv2d_118/Conv2D" precision="FP16" type="Convolution">
			<data auto_pad="same_upper" dilations="1,1" group="1" kernel="3,3" output="96" pads_begin="1,1" pads_end="1,1" strides="1,1"/>
			<input>
				<port id="0">
					<dim>1</dim>
					<dim>96</dim>
					<dim>25</dim>
					<dim>25</dim>
				</port>
			</input>
			<output>
				<port id="3">
					<dim>1</dim>
					<dim>96</dim>
					<dim>25</dim>
					<dim>25</dim>
				</port>
			</output>
			<blobs>
				<weights offset="1775616" size="165888"/>
				<biases offset="1941504" size="192"/>
			</blobs>
		</layer>
		<layer id="56" name="activation_118/Relu" precision="FP16" type="ReLU">
			<input>
				<port id="0">
					<dim>1</dim>
					<dim>96</dim>
					<dim>25</dim>
					<dim>25</dim>
				</port>
			</input>
			<output>
				<port id="1">
					<dim>1</dim>
					<dim>96</dim>
					<dim>25</dim>
					<dim>25</dim>
				</port>
			</output>
		</layer>
		<layer id="57" name="average_pooling2d_11/AvgPool" precision="FP16" type="Pooling">
			<data auto_pad="same_upper" exclude-pad="true" kernel="3,3" pads_begin="1,1" pads_end="1,1" pool-method="avg" strides="1,1"/>
			<input>
				<port id="0">
					<dim>1</dim>
					<dim>288</dim>
					<dim>25</dim>
					<dim>25</dim>
				</port>
			</input>
			<output>
				<port id="1">
					<dim>1</dim>
					<dim>288</dim>
					<dim>25</dim>
					<dim>25</dim>
				</port>
			</output>
		</layer>
		<layer id="58" name="conv2d_119/Conv2D" precision="FP16" type="Convolution">
			<data auto_pad="same_upper" dilations="1,1" group="1" kernel="1,1" output="64" pads_begin="0,0" pads_end="0,0" strides="1,1"/>
			<input>
				<port id="0">
					<dim>1</dim>
					<dim>288</dim>
					<dim>25</dim>
					<dim>25</dim>
				</port>
			</input>
			<output>
				<port id="3">
					<dim>1</dim>
					<dim>64</dim>
					<dim>25</dim>
					<dim>25</dim>
				</port>
			</output>
			<blobs>
				<weights offset="1941696" size="36864"/>
				<biases offset="1978560" size="128"/>
			</blobs>
		</layer>
		<layer id="59" name="activation_119/Relu" precision="FP16" type="ReLU">
			<input>
				<port id="0">
					<dim>1</dim>
					<dim>64</dim>
					<dim>25</dim>
					<dim>25</dim>
				</port>
			</input>
			<output>
				<port id="1">
					<dim>1</dim>
					<dim>64</dim>
					<dim>25</dim>
					<dim>25</dim>
				</port>
			</output>
		</layer>
		<layer id="60" name="mixed2/concat" precision="FP16" type="Concat">
			<data axis="1"/>
			<input>
				<port id="0">
					<dim>1</dim>
					<dim>64</dim>
					<dim>25</dim>
					<dim>25</dim>
				</port>
				<port id="1">
					<dim>1</dim>
					<dim>64</dim>
					<dim>25</dim>
					<dim>25</dim>
				</port>
				<port id="2">
					<dim>1</dim>
					<dim>96</dim>
					<dim>25</dim>
					<dim>25</dim>
				</port>
				<port id="3">
					<dim>1</dim>
					<dim>64</dim>
					<dim>25</dim>
					<dim>25</dim>
				</port>
			</input>
			<output>
				<port id="4">
					<dim>1</dim>
					<dim>288</dim>
					<dim>25</dim>
					<dim>25</dim>
				</port>
			</output>
		</layer>
		<layer id="61" name="conv2d_120/Conv2D" precision="FP16" type="Convolution">
			<data auto_pad="valid" dilations="1,1" group="1" kernel="3,3" output="384" pads_begin="0,0" pads_end="0,0" strides="2,2"/>
			<input>
				<port id="0">
					<dim>1</dim>
					<dim>288</dim>
					<dim>25</dim>
					<dim>25</dim>
				</port>
			</input>
			<output>
				<port id="3">
					<dim>1</dim>
					<dim>384</dim>
					<dim>12</dim>
					<dim>12</dim>
				</port>
			</output>
			<blobs>
				<weights offset="1978688" size="1990656"/>
				<biases offset="3969344" size="768"/>
			</blobs>
		</layer>
		<layer id="62" name="activation_120/Relu" precision="FP16" type="ReLU">
			<input>
				<port id="0">
					<dim>1</dim>
					<dim>384</dim>
					<dim>12</dim>
					<dim>12</dim>
				</port>
			</input>
			<output>
				<port id="1">
					<dim>1</dim>
					<dim>384</dim>
					<dim>12</dim>
					<dim>12</dim>
				</port>
			</output>
		</layer>
		<layer id="63" name="conv2d_121/Conv2D" precision="FP16" type="Convolution">
			<data auto_pad="same_upper" dilations="1,1" group="1" kernel="1,1" output="64" pads_begin="0,0" pads_end="0,0" strides="1,1"/>
			<input>
				<port id="0">
					<dim>1</dim>
					<dim>288</dim>
					<dim>25</dim>
					<dim>25</dim>
				</port>
			</input>
			<output>
				<port id="3">
					<dim>1</dim>
					<dim>64</dim>
					<dim>25</dim>
					<dim>25</dim>
				</port>
			</output>
			<blobs>
				<weights offset="3970112" size="36864"/>
				<biases offset="4006976" size="128"/>
			</blobs>
		</layer>
		<layer id="64" name="activation_121/Relu" precision="FP16" type="ReLU">
			<input>
				<port id="0">
					<dim>1</dim>
					<dim>64</dim>
					<dim>25</dim>
					<dim>25</dim>
				</port>
			</input>
			<output>
				<port id="1">
					<dim>1</dim>
					<dim>64</dim>
					<dim>25</dim>
					<dim>25</dim>
				</port>
			</output>
		</layer>
		<layer id="65" name="conv2d_122/Conv2D" precision="FP16" type="Convolution">
			<data auto_pad="same_upper" dilations="1,1" group="1" kernel="3,3" output="96" pads_begin="1,1" pads_end="1,1" strides="1,1"/>
			<input>
				<port id="0">
					<dim>1</dim>
					<dim>64</dim>
					<dim>25</dim>
					<dim>25</dim>
				</port>
			</input>
			<output>
				<port id="3">
					<dim>1</dim>
					<dim>96</dim>
					<dim>25</dim>
					<dim>25</dim>
				</port>
			</output>
			<blobs>
				<weights offset="4007104" size="110592"/>
				<biases offset="4117696" size="192"/>
			</blobs>
		</layer>
		<layer id="66" name="activation_122/Relu" precision="FP16" type="ReLU">
			<input>
				<port id="0">
					<dim>1</dim>
					<dim>96</dim>
					<dim>25</dim>
					<dim>25</dim>
				</port>
			</input>
			<output>
				<port id="1">
					<dim>1</dim>
					<dim>96</dim>
					<dim>25</dim>
					<dim>25</dim>
				</port>
			</output>
		</layer>
		<layer id="67" name="conv2d_123/Conv2D" precision="FP16" type="Convolution">
			<data auto_pad="valid" dilations="1,1" group="1" kernel="3,3" output="96" pads_begin="0,0" pads_end="0,0" strides="2,2"/>
			<input>
				<port id="0">
					<dim>1</dim>
					<dim>96</dim>
					<dim>25</dim>
					<dim>25</dim>
				</port>
			</input>
			<output>
				<port id="3">
					<dim>1</dim>
					<dim>96</dim>
					<dim>12</dim>
					<dim>12</dim>
				</port>
			</output>
			<blobs>
				<weights offset="4117888" size="165888"/>
				<biases offset="4283776" size="192"/>
			</blobs>
		</layer>
		<layer id="68" name="activation_123/Relu" precision="FP16" type="ReLU">
			<input>
				<port id="0">
					<dim>1</dim>
					<dim>96</dim>
					<dim>12</dim>
					<dim>12</dim>
				</port>
			</input>
			<output>
				<port id="1">
					<dim>1</dim>
					<dim>96</dim>
					<dim>12</dim>
					<dim>12</dim>
				</port>
			</output>
		</layer>
		<layer id="69" name="max_pooling2d_6/MaxPool" precision="FP16" type="Pooling">
			<data auto_pad="valid" exclude-pad="true" kernel="3,3" pads_begin="0,0" pads_end="0,0" pool-method="max" strides="2,2"/>
			<input>
				<port id="0">
					<dim>1</dim>
					<dim>288</dim>
					<dim>25</dim>
					<dim>25</dim>
				</port>
			</input>
			<output>
				<port id="1">
					<dim>1</dim>
					<dim>288</dim>
					<dim>12</dim>
					<dim>12</dim>
				</port>
			</output>
		</layer>
		<layer id="70" name="mixed3/concat" precision="FP16" type="Concat">
			<data axis="1"/>
			<input>
				<port id="0">
					<dim>1</dim>
					<dim>384</dim>
					<dim>12</dim>
					<dim>12</dim>
				</port>
				<port id="1">
					<dim>1</dim>
					<dim>96</dim>
					<dim>12</dim>
					<dim>12</dim>
				</port>
				<port id="2">
					<dim>1</dim>
					<dim>288</dim>
					<dim>12</dim>
					<dim>12</dim>
				</port>
			</input>
			<output>
				<port id="3">
					<dim>1</dim>
					<dim>768</dim>
					<dim>12</dim>
					<dim>12</dim>
				</port>
			</output>
		</layer>
		<layer id="71" name="conv2d_124/Conv2D" precision="FP16" type="Convolution">
			<data auto_pad="same_upper" dilations="1,1" group="1" kernel="1,1" output="192" pads_begin="0,0" pads_end="0,0" strides="1,1"/>
			<input>
				<port id="0">
					<dim>1</dim>
					<dim>768</dim>
					<dim>12</dim>
					<dim>12</dim>
				</port>
			</input>
			<output>
				<port id="3">
					<dim>1</dim>
					<dim>192</dim>
					<dim>12</dim>
					<dim>12</dim>
				</port>
			</output>
			<blobs>
				<weights offset="4283968" size="294912"/>
				<biases offset="4578880" size="384"/>
			</blobs>
		</layer>
		<layer id="72" name="activation_124/Relu" precision="FP16" type="ReLU">
			<input>
				<port id="0">
					<dim>1</dim>
					<dim>192</dim>
					<dim>12</dim>
					<dim>12</dim>
				</port>
			</input>
			<output>
				<port id="1">
					<dim>1</dim>
					<dim>192</dim>
					<dim>12</dim>
					<dim>12</dim>
				</port>
			</output>
		</layer>
		<layer id="73" name="conv2d_125/Conv2D" precision="FP16" type="Convolution">
			<data auto_pad="same_upper" dilations="1,1" group="1" kernel="1,1" output="128" pads_begin="0,0" pads_end="0,0" strides="1,1"/>
			<input>
				<port id="0">
					<dim>1</dim>
					<dim>768</dim>
					<dim>12</dim>
					<dim>12</dim>
				</port>
			</input>
			<output>
				<port id="3">
					<dim>1</dim>
					<dim>128</dim>
					<dim>12</dim>
					<dim>12</dim>
				</port>
			</output>
			<blobs>
				<weights offset="4579264" size="196608"/>
				<biases offset="4775872" size="256"/>
			</blobs>
		</layer>
		<layer id="74" name="activation_125/Relu" precision="FP16" type="ReLU">
			<input>
				<port id="0">
					<dim>1</dim>
					<dim>128</dim>
					<dim>12</dim>
					<dim>12</dim>
				</port>
			</input>
			<output>
				<port id="1">
					<dim>1</dim>
					<dim>128</dim>
					<dim>12</dim>
					<dim>12</dim>
				</port>
			</output>
		</layer>
		<layer id="75" name="conv2d_126/Conv2D" precision="FP16" type="Convolution">
			<data auto_pad="same_upper" dilations="1,1" group="1" kernel="1,7" output="128" pads_begin="0,3" pads_end="0,3" strides="1,1"/>
			<input>
				<port id="0">
					<dim>1</dim>
					<dim>128</dim>
					<dim>12</dim>
					<dim>12</dim>
				</port>
			</input>
			<output>
				<port id="3">
					<dim>1</dim>
					<dim>128</dim>
					<dim>12</dim>
					<dim>12</dim>
				</port>
			</output>
			<blobs>
				<weights offset="4776128" size="229376"/>
				<biases offset="5005504" size="256"/>
			</blobs>
		</layer>
		<layer id="76" name="activation_126/Relu" precision="FP16" type="ReLU">
			<input>
				<port id="0">
					<dim>1</dim>
					<dim>128</dim>
					<dim>12</dim>
					<dim>12</dim>
				</port>
			</input>
			<output>
				<port id="1">
					<dim>1</dim>
					<dim>128</dim>
					<dim>12</dim>
					<dim>12</dim>
				</port>
			</output>
		</layer>
		<layer id="77" name="conv2d_127/Conv2D" precision="FP16" type="Convolution">
			<data auto_pad="same_upper" dilations="1,1" group="1" kernel="7,1" output="192" pads_begin="3,0" pads_end="3,0" strides="1,1"/>
			<input>
				<port id="0">
					<dim>1</dim>
					<dim>128</dim>
					<dim>12</dim>
					<dim>12</dim>
				</port>
			</input>
			<output>
				<port id="3">
					<dim>1</dim>
					<dim>192</dim>
					<dim>12</dim>
					<dim>12</dim>
				</port>
			</output>
			<blobs>
				<weights offset="5005760" size="344064"/>
				<biases offset="5349824" size="384"/>
			</blobs>
		</layer>
		<layer id="78" name="activation_127/Relu" precision="FP16" type="ReLU">
			<input>
				<port id="0">
					<dim>1</dim>
					<dim>192</dim>
					<dim>12</dim>
					<dim>12</dim>
				</port>
			</input>
			<output>
				<port id="1">
					<dim>1</dim>
					<dim>192</dim>
					<dim>12</dim>
					<dim>12</dim>
				</port>
			</output>
		</layer>
		<layer id="79" name="conv2d_128/Conv2D" precision="FP16" type="Convolution">
			<data auto_pad="same_upper" dilations="1,1" group="1" kernel="1,1" output="128" pads_begin="0,0" pads_end="0,0" strides="1,1"/>
			<input>
				<port id="0">
					<dim>1</dim>
					<dim>768</dim>
					<dim>12</dim>
					<dim>12</dim>
				</port>
			</input>
			<output>
				<port id="3">
					<dim>1</dim>
					<dim>128</dim>
					<dim>12</dim>
					<dim>12</dim>
				</port>
			</output>
			<blobs>
				<weights offset="5350208" size="196608"/>
				<biases offset="5546816" size="256"/>
			</blobs>
		</layer>
		<layer id="80" name="activation_128/Relu" precision="FP16" type="ReLU">
			<input>
				<port id="0">
					<dim>1</dim>
					<dim>128</dim>
					<dim>12</dim>
					<dim>12</dim>
				</port>
			</input>
			<output>
				<port id="1">
					<dim>1</dim>
					<dim>128</dim>
					<dim>12</dim>
					<dim>12</dim>
				</port>
			</output>
		</layer>
		<layer id="81" name="conv2d_129/Conv2D" precision="FP16" type="Convolution">
			<data auto_pad="same_upper" dilations="1,1" group="1" kernel="7,1" output="128" pads_begin="3,0" pads_end="3,0" strides="1,1"/>
			<input>
				<port id="0">
					<dim>1</dim>
					<dim>128</dim>
					<dim>12</dim>
					<dim>12</dim>
				</port>
			</input>
			<output>
				<port id="3">
					<dim>1</dim>
					<dim>128</dim>
					<dim>12</dim>
					<dim>12</dim>
				</port>
			</output>
			<blobs>
				<weights offset="5547072" size="229376"/>
				<biases offset="5776448" size="256"/>
			</blobs>
		</layer>
		<layer id="82" name="activation_129/Relu" precision="FP16" type="ReLU">
			<input>
				<port id="0">
					<dim>1</dim>
					<dim>128</dim>
					<dim>12</dim>
					<dim>12</dim>
				</port>
			</input>
			<output>
				<port id="1">
					<dim>1</dim>
					<dim>128</dim>
					<dim>12</dim>
					<dim>12</dim>
				</port>
			</output>
		</layer>
		<layer id="83" name="conv2d_130/Conv2D" precision="FP16" type="Convolution">
			<data auto_pad="same_upper" dilations="1,1" group="1" kernel="1,7" output="128" pads_begin="0,3" pads_end="0,3" strides="1,1"/>
			<input>
				<port id="0">
					<dim>1</dim>
					<dim>128</dim>
					<dim>12</dim>
					<dim>12</dim>
				</port>
			</input>
			<output>
				<port id="3">
					<dim>1</dim>
					<dim>128</dim>
					<dim>12</dim>
					<dim>12</dim>
				</port>
			</output>
			<blobs>
				<weights offset="5776704" size="229376"/>
				<biases offset="6006080" size="256"/>
			</blobs>
		</layer>
		<layer id="84" name="activation_130/Relu" precision="FP16" type="ReLU">
			<input>
				<port id="0">
					<dim>1</dim>
					<dim>128</dim>
					<dim>12</dim>
					<dim>12</dim>
				</port>
			</input>
			<output>
				<port id="1">
					<dim>1</dim>
					<dim>128</dim>
					<dim>12</dim>
					<dim>12</dim>
				</port>
			</output>
		</layer>
		<layer id="85" name="conv2d_131/Conv2D" precision="FP16" type="Convolution">
			<data auto_pad="same_upper" dilations="1,1" group="1" kernel="7,1" output="128" pads_begin="3,0" pads_end="3,0" strides="1,1"/>
			<input>
				<port id="0">
					<dim>1</dim>
					<dim>128</dim>
					<dim>12</dim>
					<dim>12</dim>
				</port>
			</input>
			<output>
				<port id="3">
					<dim>1</dim>
					<dim>128</dim>
					<dim>12</dim>
					<dim>12</dim>
				</port>
			</output>
			<blobs>
				<weights offset="6006336" size="229376"/>
				<biases offset="6235712" size="256"/>
			</blobs>
		</layer>
		<layer id="86" name="activation_131/Relu" precision="FP16" type="ReLU">
			<input>
				<port id="0">
					<dim>1</dim>
					<dim>128</dim>
					<dim>12</dim>
					<dim>12</dim>
				</port>
			</input>
			<output>
				<port id="1">
					<dim>1</dim>
					<dim>128</dim>
					<dim>12</dim>
					<dim>12</dim>
				</port>
			</output>
		</layer>
		<layer id="87" name="conv2d_132/Conv2D" precision="FP16" type="Convolution">
			<data auto_pad="same_upper" dilations="1,1" group="1" kernel="1,7" output="192" pads_begin="0,3" pads_end="0,3" strides="1,1"/>
			<input>
				<port id="0">
					<dim>1</dim>
					<dim>128</dim>
					<dim>12</dim>
					<dim>12</dim>
				</port>
			</input>
			<output>
				<port id="3">
					<dim>1</dim>
					<dim>192</dim>
					<dim>12</dim>
					<dim>12</dim>
				</port>
			</output>
			<blobs>
				<weights offset="6235968" size="344064"/>
				<biases offset="6580032" size="384"/>
			</blobs>
		</layer>
		<layer id="88" name="activation_132/Relu" precision="FP16" type="ReLU">
			<input>
				<port id="0">
					<dim>1</dim>
					<dim>192</dim>
					<dim>12</dim>
					<dim>12</dim>
				</port>
			</input>
			<output>
				<port id="1">
					<dim>1</dim>
					<dim>192</dim>
					<dim>12</dim>
					<dim>12</dim>
				</port>
			</output>
		</layer>
		<layer id="89" name="average_pooling2d_12/AvgPool" precision="FP16" type="Pooling">
			<data auto_pad="same_upper" exclude-pad="true" kernel="3,3" pads_begin="1,1" pads_end="1,1" pool-method="avg" strides="1,1"/>
			<input>
				<port id="0">
					<dim>1</dim>
					<dim>768</dim>
					<dim>12</dim>
					<dim>12</dim>
				</port>
			</input>
			<output>
				<port id="1">
					<dim>1</dim>
					<dim>768</dim>
					<dim>12</dim>
					<dim>12</dim>
				</port>
			</output>
		</layer>
		<layer id="90" name="conv2d_133/Conv2D" precision="FP16" type="Convolution">
			<data auto_pad="same_upper" dilations="1,1" group="1" kernel="1,1" output="192" pads_begin="0,0" pads_end="0,0" strides="1,1"/>
			<input>
				<port id="0">
					<dim>1</dim>
					<dim>768</dim>
					<dim>12</dim>
					<dim>12</dim>
				</port>
			</input>
			<output>
				<port id="3">
					<dim>1</dim>
					<dim>192</dim>
					<dim>12</dim>
					<dim>12</dim>
				</port>
			</output>
			<blobs>
				<weights offset="6580416" size="294912"/>
				<biases offset="6875328" size="384"/>
			</blobs>
		</layer>
		<layer id="91" name="activation_133/Relu" precision="FP16" type="ReLU">
			<input>
				<port id="0">
					<dim>1</dim>
					<dim>192</dim>
					<dim>12</dim>
					<dim>12</dim>
				</port>
			</input>
			<output>
				<port id="1">
					<dim>1</dim>
					<dim>192</dim>
					<dim>12</dim>
					<dim>12</dim>
				</port>
			</output>
		</layer>
		<layer id="92" name="mixed4/concat" precision="FP16" type="Concat">
			<data axis="1"/>
			<input>
				<port id="0">
					<dim>1</dim>
					<dim>192</dim>
					<dim>12</dim>
					<dim>12</dim>
				</port>
				<port id="1">
					<dim>1</dim>
					<dim>192</dim>
					<dim>12</dim>
					<dim>12</dim>
				</port>
				<port id="2">
					<dim>1</dim>
					<dim>192</dim>
					<dim>12</dim>
					<dim>12</dim>
				</port>
				<port id="3">
					<dim>1</dim>
					<dim>192</dim>
					<dim>12</dim>
					<dim>12</dim>
				</port>
			</input>
			<output>
				<port id="4">
					<dim>1</dim>
					<dim>768</dim>
					<dim>12</dim>
					<dim>12</dim>
				</port>
			</output>
		</layer>
		<layer id="93" name="conv2d_134/Conv2D" precision="FP16" type="Convolution">
			<data auto_pad="same_upper" dilations="1,1" group="1" kernel="1,1" output="192" pads_begin="0,0" pads_end="0,0" strides="1,1"/>
			<input>
				<port id="0">
					<dim>1</dim>
					<dim>768</dim>
					<dim>12</dim>
					<dim>12</dim>
				</port>
			</input>
			<output>
				<port id="3">
					<dim>1</dim>
					<dim>192</dim>
					<dim>12</dim>
					<dim>12</dim>
				</port>
			</output>
			<blobs>
				<weights offset="6875712" size="294912"/>
				<biases offset="7170624" size="384"/>
			</blobs>
		</layer>
		<layer id="94" name="activation_134/Relu" precision="FP16" type="ReLU">
			<input>
				<port id="0">
					<dim>1</dim>
					<dim>192</dim>
					<dim>12</dim>
					<dim>12</dim>
				</port>
			</input>
			<output>
				<port id="1">
					<dim>1</dim>
					<dim>192</dim>
					<dim>12</dim>
					<dim>12</dim>
				</port>
			</output>
		</layer>
		<layer id="95" name="conv2d_135/Conv2D" precision="FP16" type="Convolution">
			<data auto_pad="same_upper" dilations="1,1" group="1" kernel="1,1" output="160" pads_begin="0,0" pads_end="0,0" strides="1,1"/>
			<input>
				<port id="0">
					<dim>1</dim>
					<dim>768</dim>
					<dim>12</dim>
					<dim>12</dim>
				</port>
			</input>
			<output>
				<port id="3">
					<dim>1</dim>
					<dim>160</dim>
					<dim>12</dim>
					<dim>12</dim>
				</port>
			</output>
			<blobs>
				<weights offset="7171008" size="245760"/>
				<biases offset="7416768" size="320"/>
			</blobs>
		</layer>
		<layer id="96" name="activation_135/Relu" precision="FP16" type="ReLU">
			<input>
				<port id="0">
					<dim>1</dim>
					<dim>160</dim>
					<dim>12</dim>
					<dim>12</dim>
				</port>
			</input>
			<output>
				<port id="1">
					<dim>1</dim>
					<dim>160</dim>
					<dim>12</dim>
					<dim>12</dim>
				</port>
			</output>
		</layer>
		<layer id="97" name="conv2d_136/Conv2D" precision="FP16" type="Convolution">
			<data auto_pad="same_upper" dilations="1,1" group="1" kernel="1,7" output="160" pads_begin="0,3" pads_end="0,3" strides="1,1"/>
			<input>
				<port id="0">
					<dim>1</dim>
					<dim>160</dim>
					<dim>12</dim>
					<dim>12</dim>
				</port>
			</input>
			<output>
				<port id="3">
					<dim>1</dim>
					<dim>160</dim>
					<dim>12</dim>
					<dim>12</dim>
				</port>
			</output>
			<blobs>
				<weights offset="7417088" size="358400"/>
				<biases offset="7775488" size="320"/>
			</blobs>
		</layer>
		<layer id="98" name="activation_136/Relu" precision="FP16" type="ReLU">
			<input>
				<port id="0">
					<dim>1</dim>
					<dim>160</dim>
					<dim>12</dim>
					<dim>12</dim>
				</port>
			</input>
			<output>
				<port id="1">
					<dim>1</dim>
					<dim>160</dim>
					<dim>12</dim>
					<dim>12</dim>
				</port>
			</output>
		</layer>
		<layer id="99" name="conv2d_137/Conv2D" precision="FP16" type="Convolution">
			<data auto_pad="same_upper" dilations="1,1" group="1" kernel="7,1" output="192" pads_begin="3,0" pads_end="3,0" strides="1,1"/>
			<input>
				<port id="0">
					<dim>1</dim>
					<dim>160</dim>
					<dim>12</dim>
					<dim>12</dim>
				</port>
			</input>
			<output>
				<port id="3">
					<dim>1</dim>
					<dim>192</dim>
					<dim>12</dim>
					<dim>12</dim>
				</port>
			</output>
			<blobs>
				<weights offset="7775808" size="430080"/>
				<biases offset="8205888" size="384"/>
			</blobs>
		</layer>
		<layer id="100" name="activation_137/Relu" precision="FP16" type="ReLU">
			<input>
				<port id="0">
					<dim>1</dim>
					<dim>192</dim>
					<dim>12</dim>
					<dim>12</dim>
				</port>
			</input>
			<output>
				<port id="1">
					<dim>1</dim>
					<dim>192</dim>
					<dim>12</dim>
					<dim>12</dim>
				</port>
			</output>
		</layer>
		<layer id="101" name="conv2d_138/Conv2D" precision="FP16" type="Convolution">
			<data auto_pad="same_upper" dilations="1,1" group="1" kernel="1,1" output="160" pads_begin="0,0" pads_end="0,0" strides="1,1"/>
			<input>
				<port id="0">
					<dim>1</dim>
					<dim>768</dim>
					<dim>12</dim>
					<dim>12</dim>
				</port>
			</input>
			<output>
				<port id="3">
					<dim>1</dim>
					<dim>160</dim>
					<dim>12</dim>
					<dim>12</dim>
				</port>
			</output>
			<blobs>
				<weights offset="8206272" size="245760"/>
				<biases offset="8452032" size="320"/>
			</blobs>
		</layer>
		<layer id="102" name="activation_138/Relu" precision="FP16" type="ReLU">
			<input>
				<port id="0">
					<dim>1</dim>
					<dim>160</dim>
					<dim>12</dim>
					<dim>12</dim>
				</port>
			</input>
			<output>
				<port id="1">
					<dim>1</dim>
					<dim>160</dim>
					<dim>12</dim>
					<dim>12</dim>
				</port>
			</output>
		</layer>
		<layer id="103" name="conv2d_139/Conv2D" precision="FP16" type="Convolution">
			<data auto_pad="same_upper" dilations="1,1" group="1" kernel="7,1" output="160" pads_begin="3,0" pads_end="3,0" strides="1,1"/>
			<input>
				<port id="0">
					<dim>1</dim>
					<dim>160</dim>
					<dim>12</dim>
					<dim>12</dim>
				</port>
			</input>
			<output>
				<port id="3">
					<dim>1</dim>
					<dim>160</dim>
					<dim>12</dim>
					<dim>12</dim>
				</port>
			</output>
			<blobs>
				<weights offset="8452352" size="358400"/>
				<biases offset="8810752" size="320"/>
			</blobs>
		</layer>
		<layer id="104" name="activation_139/Relu" precision="FP16" type="ReLU">
			<input>
				<port id="0">
					<dim>1</dim>
					<dim>160</dim>
					<dim>12</dim>
					<dim>12</dim>
				</port>
			</input>
			<output>
				<port id="1">
					<dim>1</dim>
					<dim>160</dim>
					<dim>12</dim>
					<dim>12</dim>
				</port>
			</output>
		</layer>
		<layer id="105" name="conv2d_140/Conv2D" precision="FP16" type="Convolution">
			<data auto_pad="same_upper" dilations="1,1" group="1" kernel="1,7" output="160" pads_begin="0,3" pads_end="0,3" strides="1,1"/>
			<input>
				<port id="0">
					<dim>1</dim>
					<dim>160</dim>
					<dim>12</dim>
					<dim>12</dim>
				</port>
			</input>
			<output>
				<port id="3">
					<dim>1</dim>
					<dim>160</dim>
					<dim>12</dim>
					<dim>12</dim>
				</port>
			</output>
			<blobs>
				<weights offset="8811072" size="358400"/>
				<biases offset="9169472" size="320"/>
			</blobs>
		</layer>
		<layer id="106" name="activation_140/Relu" precision="FP16" type="ReLU">
			<input>
				<port id="0">
					<dim>1</dim>
					<dim>160</dim>
					<dim>12</dim>
					<dim>12</dim>
				</port>
			</input>
			<output>
				<port id="1">
					<dim>1</dim>
					<dim>160</dim>
					<dim>12</dim>
					<dim>12</dim>
				</port>
			</output>
		</layer>
		<layer id="107" name="conv2d_141/Conv2D" precision="FP16" type="Convolution">
			<data auto_pad="same_upper" dilations="1,1" group="1" kernel="7,1" output="160" pads_begin="3,0" pads_end="3,0" strides="1,1"/>
			<input>
				<port id="0">
					<dim>1</dim>
					<dim>160</dim>
					<dim>12</dim>
					<dim>12</dim>
				</port>
			</input>
			<output>
				<port id="3">
					<dim>1</dim>
					<dim>160</dim>
					<dim>12</dim>
					<dim>12</dim>
				</port>
			</output>
			<blobs>
				<weights offset="9169792" size="358400"/>
				<biases offset="9528192" size="320"/>
			</blobs>
		</layer>
		<layer id="108" name="activation_141/Relu" precision="FP16" type="ReLU">
			<input>
				<port id="0">
					<dim>1</dim>
					<dim>160</dim>
					<dim>12</dim>
					<dim>12</dim>
				</port>
			</input>
			<output>
				<port id="1">
					<dim>1</dim>
					<dim>160</dim>
					<dim>12</dim>
					<dim>12</dim>
				</port>
			</output>
		</layer>
		<layer id="109" name="conv2d_142/Conv2D" precision="FP16" type="Convolution">
			<data auto_pad="same_upper" dilations="1,1" group="1" kernel="1,7" output="192" pads_begin="0,3" pads_end="0,3" strides="1,1"/>
			<input>
				<port id="0">
					<dim>1</dim>
					<dim>160</dim>
					<dim>12</dim>
					<dim>12</dim>
				</port>
			</input>
			<output>
				<port id="3">
					<dim>1</dim>
					<dim>192</dim>
					<dim>12</dim>
					<dim>12</dim>
				</port>
			</output>
			<blobs>
				<weights offset="9528512" size="430080"/>
				<biases offset="9958592" size="384"/>
			</blobs>
		</layer>
		<layer id="110" name="activation_142/Relu" precision="FP16" type="ReLU">
			<input>
				<port id="0">
					<dim>1</dim>
					<dim>192</dim>
					<dim>12</dim>
					<dim>12</dim>
				</port>
			</input>
			<output>
				<port id="1">
					<dim>1</dim>
					<dim>192</dim>
					<dim>12</dim>
					<dim>12</dim>
				</port>
			</output>
		</layer>
		<layer id="111" name="average_pooling2d_13/AvgPool" precision="FP16" type="Pooling">
			<data auto_pad="same_upper" exclude-pad="true" kernel="3,3" pads_begin="1,1" pads_end="1,1" pool-method="avg" strides="1,1"/>
			<input>
				<port id="0">
					<dim>1</dim>
					<dim>768</dim>
					<dim>12</dim>
					<dim>12</dim>
				</port>
			</input>
			<output>
				<port id="1">
					<dim>1</dim>
					<dim>768</dim>
					<dim>12</dim>
					<dim>12</dim>
				</port>
			</output>
		</layer>
		<layer id="112" name="conv2d_143/Conv2D" precision="FP16" type="Convolution">
			<data auto_pad="same_upper" dilations="1,1" group="1" kernel="1,1" output="192" pads_begin="0,0" pads_end="0,0" strides="1,1"/>
			<input>
				<port id="0">
					<dim>1</dim>
					<dim>768</dim>
					<dim>12</dim>
					<dim>12</dim>
				</port>
			</input>
			<output>
				<port id="3">
					<dim>1</dim>
					<dim>192</dim>
					<dim>12</dim>
					<dim>12</dim>
				</port>
			</output>
			<blobs>
				<weights offset="9958976" size="294912"/>
				<biases offset="10253888" size="384"/>
			</blobs>
		</layer>
		<layer id="113" name="activation_143/Relu" precision="FP16" type="ReLU">
			<input>
				<port id="0">
					<dim>1</dim>
					<dim>192</dim>
					<dim>12</dim>
					<dim>12</dim>
				</port>
			</input>
			<output>
				<port id="1">
					<dim>1</dim>
					<dim>192</dim>
					<dim>12</dim>
					<dim>12</dim>
				</port>
			</output>
		</layer>
		<layer id="114" name="mixed5/concat" precision="FP16" type="Concat">
			<data axis="1"/>
			<input>
				<port id="0">
					<dim>1</dim>
					<dim>192</dim>
					<dim>12</dim>
					<dim>12</dim>
				</port>
				<port id="1">
					<dim>1</dim>
					<dim>192</dim>
					<dim>12</dim>
					<dim>12</dim>
				</port>
				<port id="2">
					<dim>1</dim>
					<dim>192</dim>
					<dim>12</dim>
					<dim>12</dim>
				</port>
				<port id="3">
					<dim>1</dim>
					<dim>192</dim>
					<dim>12</dim>
					<dim>12</dim>
				</port>
			</input>
			<output>
				<port id="4">
					<dim>1</dim>
					<dim>768</dim>
					<dim>12</dim>
					<dim>12</dim>
				</port>
			</output>
		</layer>
		<layer id="115" name="conv2d_144/Conv2D" precision="FP16" type="Convolution">
			<data auto_pad="same_upper" dilations="1,1" group="1" kernel="1,1" output="192" pads_begin="0,0" pads_end="0,0" strides="1,1"/>
			<input>
				<port id="0">
					<dim>1</dim>
					<dim>768</dim>
					<dim>12</dim>
					<dim>12</dim>
				</port>
			</input>
			<output>
				<port id="3">
					<dim>1</dim>
					<dim>192</dim>
					<dim>12</dim>
					<dim>12</dim>
				</port>
			</output>
			<blobs>
				<weights offset="10254272" size="294912"/>
				<biases offset="10549184" size="384"/>
			</blobs>
		</layer>
		<layer id="116" name="activation_144/Relu" precision="FP16" type="ReLU">
			<input>
				<port id="0">
					<dim>1</dim>
					<dim>192</dim>
					<dim>12</dim>
					<dim>12</dim>
				</port>
			</input>
			<output>
				<port id="1">
					<dim>1</dim>
					<dim>192</dim>
					<dim>12</dim>
					<dim>12</dim>
				</port>
			</output>
		</layer>
		<layer id="117" name="conv2d_145/Conv2D" precision="FP16" type="Convolution">
			<data auto_pad="same_upper" dilations="1,1" group="1" kernel="1,1" output="160" pads_begin="0,0" pads_end="0,0" strides="1,1"/>
			<input>
				<port id="0">
					<dim>1</dim>
					<dim>768</dim>
					<dim>12</dim>
					<dim>12</dim>
				</port>
			</input>
			<output>
				<port id="3">
					<dim>1</dim>
					<dim>160</dim>
					<dim>12</dim>
					<dim>12</dim>
				</port>
			</output>
			<blobs>
				<weights offset="10549568" size="245760"/>
				<biases offset="10795328" size="320"/>
			</blobs>
		</layer>
		<layer id="118" name="activation_145/Relu" precision="FP16" type="ReLU">
			<input>
				<port id="0">
					<dim>1</dim>
					<dim>160</dim>
					<dim>12</dim>
					<dim>12</dim>
				</port>
			</input>
			<output>
				<port id="1">
					<dim>1</dim>
					<dim>160</dim>
					<dim>12</dim>
					<dim>12</dim>
				</port>
			</output>
		</layer>
		<layer id="119" name="conv2d_146/Conv2D" precision="FP16" type="Convolution">
			<data auto_pad="same_upper" dilations="1,1" group="1" kernel="1,7" output="160" pads_begin="0,3" pads_end="0,3" strides="1,1"/>
			<input>
				<port id="0">
					<dim>1</dim>
					<dim>160</dim>
					<dim>12</dim>
					<dim>12</dim>
				</port>
			</input>
			<output>
				<port id="3">
					<dim>1</dim>
					<dim>160</dim>
					<dim>12</dim>
					<dim>12</dim>
				</port>
			</output>
			<blobs>
				<weights offset="10795648" size="358400"/>
				<biases offset="11154048" size="320"/>
			</blobs>
		</layer>
		<layer id="120" name="activation_146/Relu" precision="FP16" type="ReLU">
			<input>
				<port id="0">
					<dim>1</dim>
					<dim>160</dim>
					<dim>12</dim>
					<dim>12</dim>
				</port>
			</input>
			<output>
				<port id="1">
					<dim>1</dim>
					<dim>160</dim>
					<dim>12</dim>
					<dim>12</dim>
				</port>
			</output>
		</layer>
		<layer id="121" name="conv2d_147/Conv2D" precision="FP16" type="Convolution">
			<data auto_pad="same_upper" dilations="1,1" group="1" kernel="7,1" output="192" pads_begin="3,0" pads_end="3,0" strides="1,1"/>
			<input>
				<port id="0">
					<dim>1</dim>
					<dim>160</dim>
					<dim>12</dim>
					<dim>12</dim>
				</port>
			</input>
			<output>
				<port id="3">
					<dim>1</dim>
					<dim>192</dim>
					<dim>12</dim>
					<dim>12</dim>
				</port>
			</output>
			<blobs>
				<weights offset="11154368" size="430080"/>
				<biases offset="11584448" size="384"/>
			</blobs>
		</layer>
		<layer id="122" name="activation_147/Relu" precision="FP16" type="ReLU">
			<input>
				<port id="0">
					<dim>1</dim>
					<dim>192</dim>
					<dim>12</dim>
					<dim>12</dim>
				</port>
			</input>
			<output>
				<port id="1">
					<dim>1</dim>
					<dim>192</dim>
					<dim>12</dim>
					<dim>12</dim>
				</port>
			</output>
		</layer>
		<layer id="123" name="conv2d_148/Conv2D" precision="FP16" type="Convolution">
			<data auto_pad="same_upper" dilations="1,1" group="1" kernel="1,1" output="160" pads_begin="0,0" pads_end="0,0" strides="1,1"/>
			<input>
				<port id="0">
					<dim>1</dim>
					<dim>768</dim>
					<dim>12</dim>
					<dim>12</dim>
				</port>
			</input>
			<output>
				<port id="3">
					<dim>1</dim>
					<dim>160</dim>
					<dim>12</dim>
					<dim>12</dim>
				</port>
			</output>
			<blobs>
				<weights offset="11584832" size="245760"/>
				<biases offset="11830592" size="320"/>
			</blobs>
		</layer>
		<layer id="124" name="activation_148/Relu" precision="FP16" type="ReLU">
			<input>
				<port id="0">
					<dim>1</dim>
					<dim>160</dim>
					<dim>12</dim>
					<dim>12</dim>
				</port>
			</input>
			<output>
				<port id="1">
					<dim>1</dim>
					<dim>160</dim>
					<dim>12</dim>
					<dim>12</dim>
				</port>
			</output>
		</layer>
		<layer id="125" name="conv2d_149/Conv2D" precision="FP16" type="Convolution">
			<data auto_pad="same_upper" dilations="1,1" group="1" kernel="7,1" output="160" pads_begin="3,0" pads_end="3,0" strides="1,1"/>
			<input>
				<port id="0">
					<dim>1</dim>
					<dim>160</dim>
					<dim>12</dim>
					<dim>12</dim>
				</port>
			</input>
			<output>
				<port id="3">
					<dim>1</dim>
					<dim>160</dim>
					<dim>12</dim>
					<dim>12</dim>
				</port>
			</output>
			<blobs>
				<weights offset="11830912" size="358400"/>
				<biases offset="12189312" size="320"/>
			</blobs>
		</layer>
		<layer id="126" name="activation_149/Relu" precision="FP16" type="ReLU">
			<input>
				<port id="0">
					<dim>1</dim>
					<dim>160</dim>
					<dim>12</dim>
					<dim>12</dim>
				</port>
			</input>
			<output>
				<port id="1">
					<dim>1</dim>
					<dim>160</dim>
					<dim>12</dim>
					<dim>12</dim>
				</port>
			</output>
		</layer>
		<layer id="127" name="conv2d_150/Conv2D" precision="FP16" type="Convolution">
			<data auto_pad="same_upper" dilations="1,1" group="1" kernel="1,7" output="160" pads_begin="0,3" pads_end="0,3" strides="1,1"/>
			<input>
				<port id="0">
					<dim>1</dim>
					<dim>160</dim>
					<dim>12</dim>
					<dim>12</dim>
				</port>
			</input>
			<output>
				<port id="3">
					<dim>1</dim>
					<dim>160</dim>
					<dim>12</dim>
					<dim>12</dim>
				</port>
			</output>
			<blobs>
				<weights offset="12189632" size="358400"/>
				<biases offset="12548032" size="320"/>
			</blobs>
		</layer>
		<layer id="128" name="activation_150/Relu" precision="FP16" type="ReLU">
			<input>
				<port id="0">
					<dim>1</dim>
					<dim>160</dim>
					<dim>12</dim>
					<dim>12</dim>
				</port>
			</input>
			<output>
				<port id="1">
					<dim>1</dim>
					<dim>160</dim>
					<dim>12</dim>
					<dim>12</dim>
				</port>
			</output>
		</layer>
		<layer id="129" name="conv2d_151/Conv2D" precision="FP16" type="Convolution">
			<data auto_pad="same_upper" dilations="1,1" group="1" kernel="7,1" output="160" pads_begin="3,0" pads_end="3,0" strides="1,1"/>
			<input>
				<port id="0">
					<dim>1</dim>
					<dim>160</dim>
					<dim>12</dim>
					<dim>12</dim>
				</port>
			</input>
			<output>
				<port id="3">
					<dim>1</dim>
					<dim>160</dim>
					<dim>12</dim>
					<dim>12</dim>
				</port>
			</output>
			<blobs>
				<weights offset="12548352" size="358400"/>
				<biases offset="12906752" size="320"/>
			</blobs>
		</layer>
		<layer id="130" name="activation_151/Relu" precision="FP16" type="ReLU">
			<input>
				<port id="0">
					<dim>1</dim>
					<dim>160</dim>
					<dim>12</dim>
					<dim>12</dim>
				</port>
			</input>
			<output>
				<port id="1">
					<dim>1</dim>
					<dim>160</dim>
					<dim>12</dim>
					<dim>12</dim>
				</port>
			</output>
		</layer>
		<layer id="131" name="conv2d_152/Conv2D" precision="FP16" type="Convolution">
			<data auto_pad="same_upper" dilations="1,1" group="1" kernel="1,7" output="192" pads_begin="0,3" pads_end="0,3" strides="1,1"/>
			<input>
				<port id="0">
					<dim>1</dim>
					<dim>160</dim>
					<dim>12</dim>
					<dim>12</dim>
				</port>
			</input>
			<output>
				<port id="3">
					<dim>1</dim>
					<dim>192</dim>
					<dim>12</dim>
					<dim>12</dim>
				</port>
			</output>
			<blobs>
				<weights offset="12907072" size="430080"/>
				<biases offset="13337152" size="384"/>
			</blobs>
		</layer>
		<layer id="132" name="activation_152/Relu" precision="FP16" type="ReLU">
			<input>
				<port id="0">
					<dim>1</dim>
					<dim>192</dim>
					<dim>12</dim>
					<dim>12</dim>
				</port>
			</input>
			<output>
				<port id="1">
					<dim>1</dim>
					<dim>192</dim>
					<dim>12</dim>
					<dim>12</dim>
				</port>
			</output>
		</layer>
		<layer id="133" name="average_pooling2d_14/AvgPool" precision="FP16" type="Pooling">
			<data auto_pad="same_upper" exclude-pad="true" kernel="3,3" pads_begin="1,1" pads_end="1,1" pool-method="avg" strides="1,1"/>
			<input>
				<port id="0">
					<dim>1</dim>
					<dim>768</dim>
					<dim>12</dim>
					<dim>12</dim>
				</port>
			</input>
			<output>
				<port id="1">
					<dim>1</dim>
					<dim>768</dim>
					<dim>12</dim>
					<dim>12</dim>
				</port>
			</output>
		</layer>
		<layer id="134" name="conv2d_153/Conv2D" precision="FP16" type="Convolution">
			<data auto_pad="same_upper" dilations="1,1" group="1" kernel="1,1" output="192" pads_begin="0,0" pads_end="0,0" strides="1,1"/>
			<input>
				<port id="0">
					<dim>1</dim>
					<dim>768</dim>
					<dim>12</dim>
					<dim>12</dim>
				</port>
			</input>
			<output>
				<port id="3">
					<dim>1</dim>
					<dim>192</dim>
					<dim>12</dim>
					<dim>12</dim>
				</port>
			</output>
			<blobs>
				<weights offset="13337536" size="294912"/>
				<biases offset="13632448" size="384"/>
			</blobs>
		</layer>
		<layer id="135" name="activation_153/Relu" precision="FP16" type="ReLU">
			<input>
				<port id="0">
					<dim>1</dim>
					<dim>192</dim>
					<dim>12</dim>
					<dim>12</dim>
				</port>
			</input>
			<output>
				<port id="1">
					<dim>1</dim>
					<dim>192</dim>
					<dim>12</dim>
					<dim>12</dim>
				</port>
			</output>
		</layer>
		<layer id="136" name="mixed6/concat" precision="FP16" type="Concat">
			<data axis="1"/>
			<input>
				<port id="0">
					<dim>1</dim>
					<dim>192</dim>
					<dim>12</dim>
					<dim>12</dim>
				</port>
				<port id="1">
					<dim>1</dim>
					<dim>192</dim>
					<dim>12</dim>
					<dim>12</dim>
				</port>
				<port id="2">
					<dim>1</dim>
					<dim>192</dim>
					<dim>12</dim>
					<dim>12</dim>
				</port>
				<port id="3">
					<dim>1</dim>
					<dim>192</dim>
					<dim>12</dim>
					<dim>12</dim>
				</port>
			</input>
			<output>
				<port id="4">
					<dim>1</dim>
					<dim>768</dim>
					<dim>12</dim>
					<dim>12</dim>
				</port>
			</output>
		</layer>
		<layer id="137" name="conv2d_154/Conv2D" precision="FP16" type="Convolution">
			<data auto_pad="same_upper" dilations="1,1" group="1" kernel="1,1" output="192" pads_begin="0,0" pads_end="0,0" strides="1,1"/>
			<input>
				<port id="0">
					<dim>1</dim>
					<dim>768</dim>
					<dim>12</dim>
					<dim>12</dim>
				</port>
			</input>
			<output>
				<port id="3">
					<dim>1</dim>
					<dim>192</dim>
					<dim>12</dim>
					<dim>12</dim>
				</port>
			</output>
			<blobs>
				<weights offset="13632832" size="294912"/>
				<biases offset="13927744" size="384"/>
			</blobs>
		</layer>
		<layer id="138" name="activation_154/Relu" precision="FP16" type="ReLU">
			<input>
				<port id="0">
					<dim>1</dim>
					<dim>192</dim>
					<dim>12</dim>
					<dim>12</dim>
				</port>
			</input>
			<output>
				<port id="1">
					<dim>1</dim>
					<dim>192</dim>
					<dim>12</dim>
					<dim>12</dim>
				</port>
			</output>
		</layer>
		<layer id="139" name="conv2d_155/Conv2D" precision="FP16" type="Convolution">
			<data auto_pad="same_upper" dilations="1,1" group="1" kernel="1,1" output="192" pads_begin="0,0" pads_end="0,0" strides="1,1"/>
			<input>
				<port id="0">
					<dim>1</dim>
					<dim>768</dim>
					<dim>12</dim>
					<dim>12</dim>
				</port>
			</input>
			<output>
				<port id="3">
					<dim>1</dim>
					<dim>192</dim>
					<dim>12</dim>
					<dim>12</dim>
				</port>
			</output>
			<blobs>
				<weights offset="13928128" size="294912"/>
				<biases offset="14223040" size="384"/>
			</blobs>
		</layer>
		<layer id="140" name="activation_155/Relu" precision="FP16" type="ReLU">
			<input>
				<port id="0">
					<dim>1</dim>
					<dim>192</dim>
					<dim>12</dim>
					<dim>12</dim>
				</port>
			</input>
			<output>
				<port id="1">
					<dim>1</dim>
					<dim>192</dim>
					<dim>12</dim>
					<dim>12</dim>
				</port>
			</output>
		</layer>
		<layer id="141" name="conv2d_156/Conv2D" precision="FP16" type="Convolution">
			<data auto_pad="same_upper" dilations="1,1" group="1" kernel="1,7" output="192" pads_begin="0,3" pads_end="0,3" strides="1,1"/>
			<input>
				<port id="0">
					<dim>1</dim>
					<dim>192</dim>
					<dim>12</dim>
					<dim>12</dim>
				</port>
			</input>
			<output>
				<port id="3">
					<dim>1</dim>
					<dim>192</dim>
					<dim>12</dim>
					<dim>12</dim>
				</port>
			</output>
			<blobs>
				<weights offset="14223424" size="516096"/>
				<biases offset="14739520" size="384"/>
			</blobs>
		</layer>
		<layer id="142" name="activation_156/Relu" precision="FP16" type="ReLU">
			<input>
				<port id="0">
					<dim>1</dim>
					<dim>192</dim>
					<dim>12</dim>
					<dim>12</dim>
				</port>
			</input>
			<output>
				<port id="1">
					<dim>1</dim>
					<dim>192</dim>
					<dim>12</dim>
					<dim>12</dim>
				</port>
			</output>
		</layer>
		<layer id="143" name="conv2d_157/Conv2D" precision="FP16" type="Convolution">
			<data auto_pad="same_upper" dilations="1,1" group="1" kernel="7,1" output="192" pads_begin="3,0" pads_end="3,0" strides="1,1"/>
			<input>
				<port id="0">
					<dim>1</dim>
					<dim>192</dim>
					<dim>12</dim>
					<dim>12</dim>
				</port>
			</input>
			<output>
				<port id="3">
					<dim>1</dim>
					<dim>192</dim>
					<dim>12</dim>
					<dim>12</dim>
				</port>
			</output>
			<blobs>
				<weights offset="14739904" size="516096"/>
				<biases offset="15256000" size="384"/>
			</blobs>
		</layer>
		<layer id="144" name="activation_157/Relu" precision="FP16" type="ReLU">
			<input>
				<port id="0">
					<dim>1</dim>
					<dim>192</dim>
					<dim>12</dim>
					<dim>12</dim>
				</port>
			</input>
			<output>
				<port id="1">
					<dim>1</dim>
					<dim>192</dim>
					<dim>12</dim>
					<dim>12</dim>
				</port>
			</output>
		</layer>
		<layer id="145" name="conv2d_158/Conv2D" precision="FP16" type="Convolution">
			<data auto_pad="same_upper" dilations="1,1" group="1" kernel="1,1" output="192" pads_begin="0,0" pads_end="0,0" strides="1,1"/>
			<input>
				<port id="0">
					<dim>1</dim>
					<dim>768</dim>
					<dim>12</dim>
					<dim>12</dim>
				</port>
			</input>
			<output>
				<port id="3">
					<dim>1</dim>
					<dim>192</dim>
					<dim>12</dim>
					<dim>12</dim>
				</port>
			</output>
			<blobs>
				<weights offset="15256384" size="294912"/>
				<biases offset="15551296" size="384"/>
			</blobs>
		</layer>
		<layer id="146" name="activation_158/Relu" precision="FP16" type="ReLU">
			<input>
				<port id="0">
					<dim>1</dim>
					<dim>192</dim>
					<dim>12</dim>
					<dim>12</dim>
				</port>
			</input>
			<output>
				<port id="1">
					<dim>1</dim>
					<dim>192</dim>
					<dim>12</dim>
					<dim>12</dim>
				</port>
			</output>
		</layer>
		<layer id="147" name="conv2d_159/Conv2D" precision="FP16" type="Convolution">
			<data auto_pad="same_upper" dilations="1,1" group="1" kernel="7,1" output="192" pads_begin="3,0" pads_end="3,0" strides="1,1"/>
			<input>
				<port id="0">
					<dim>1</dim>
					<dim>192</dim>
					<dim>12</dim>
					<dim>12</dim>
				</port>
			</input>
			<output>
				<port id="3">
					<dim>1</dim>
					<dim>192</dim>
					<dim>12</dim>
					<dim>12</dim>
				</port>
			</output>
			<blobs>
				<weights offset="15551680" size="516096"/>
				<biases offset="16067776" size="384"/>
			</blobs>
		</layer>
		<layer id="148" name="activation_159/Relu" precision="FP16" type="ReLU">
			<input>
				<port id="0">
					<dim>1</dim>
					<dim>192</dim>
					<dim>12</dim>
					<dim>12</dim>
				</port>
			</input>
			<output>
				<port id="1">
					<dim>1</dim>
					<dim>192</dim>
					<dim>12</dim>
					<dim>12</dim>
				</port>
			</output>
		</layer>
		<layer id="149" name="conv2d_160/Conv2D" precision="FP16" type="Convolution">
			<data auto_pad="same_upper" dilations="1,1" group="1" kernel="1,7" output="192" pads_begin="0,3" pads_end="0,3" strides="1,1"/>
			<input>
				<port id="0">
					<dim>1</dim>
					<dim>192</dim>
					<dim>12</dim>
					<dim>12</dim>
				</port>
			</input>
			<output>
				<port id="3">
					<dim>1</dim>
					<dim>192</dim>
					<dim>12</dim>
					<dim>12</dim>
				</port>
			</output>
			<blobs>
				<weights offset="16068160" size="516096"/>
				<biases offset="16584256" size="384"/>
			</blobs>
		</layer>
		<layer id="150" name="activation_160/Relu" precision="FP16" type="ReLU">
			<input>
				<port id="0">
					<dim>1</dim>
					<dim>192</dim>
					<dim>12</dim>
					<dim>12</dim>
				</port>
			</input>
			<output>
				<port id="1">
					<dim>1</dim>
					<dim>192</dim>
					<dim>12</dim>
					<dim>12</dim>
				</port>
			</output>
		</layer>
		<layer id="151" name="conv2d_161/Conv2D" precision="FP16" type="Convolution">
			<data auto_pad="same_upper" dilations="1,1" group="1" kernel="7,1" output="192" pads_begin="3,0" pads_end="3,0" strides="1,1"/>
			<input>
				<port id="0">
					<dim>1</dim>
					<dim>192</dim>
					<dim>12</dim>
					<dim>12</dim>
				</port>
			</input>
			<output>
				<port id="3">
					<dim>1</dim>
					<dim>192</dim>
					<dim>12</dim>
					<dim>12</dim>
				</port>
			</output>
			<blobs>
				<weights offset="16584640" size="516096"/>
				<biases offset="17100736" size="384"/>
			</blobs>
		</layer>
		<layer id="152" name="activation_161/Relu" precision="FP16" type="ReLU">
			<input>
				<port id="0">
					<dim>1</dim>
					<dim>192</dim>
					<dim>12</dim>
					<dim>12</dim>
				</port>
			</input>
			<output>
				<port id="1">
					<dim>1</dim>
					<dim>192</dim>
					<dim>12</dim>
					<dim>12</dim>
				</port>
			</output>
		</layer>
		<layer id="153" name="conv2d_162/Conv2D" precision="FP16" type="Convolution">
			<data auto_pad="same_upper" dilations="1,1" group="1" kernel="1,7" output="192" pads_begin="0,3" pads_end="0,3" strides="1,1"/>
			<input>
				<port id="0">
					<dim>1</dim>
					<dim>192</dim>
					<dim>12</dim>
					<dim>12</dim>
				</port>
			</input>
			<output>
				<port id="3">
					<dim>1</dim>
					<dim>192</dim>
					<dim>12</dim>
					<dim>12</dim>
				</port>
			</output>
			<blobs>
				<weights offset="17101120" size="516096"/>
				<biases offset="17617216" size="384"/>
			</blobs>
		</layer>
		<layer id="154" name="activation_162/Relu" precision="FP16" type="ReLU">
			<input>
				<port id="0">
					<dim>1</dim>
					<dim>192</dim>
					<dim>12</dim>
					<dim>12</dim>
				</port>
			</input>
			<output>
				<port id="1">
					<dim>1</dim>
					<dim>192</dim>
					<dim>12</dim>
					<dim>12</dim>
				</port>
			</output>
		</layer>
		<layer id="155" name="average_pooling2d_15/AvgPool" precision="FP16" type="Pooling">
			<data auto_pad="same_upper" exclude-pad="true" kernel="3,3" pads_begin="1,1" pads_end="1,1" pool-method="avg" strides="1,1"/>
			<input>
				<port id="0">
					<dim>1</dim>
					<dim>768</dim>
					<dim>12</dim>
					<dim>12</dim>
				</port>
			</input>
			<output>
				<port id="1">
					<dim>1</dim>
					<dim>768</dim>
					<dim>12</dim>
					<dim>12</dim>
				</port>
			</output>
		</layer>
		<layer id="156" name="conv2d_163/Conv2D" precision="FP16" type="Convolution">
			<data auto_pad="same_upper" dilations="1,1" group="1" kernel="1,1" output="192" pads_begin="0,0" pads_end="0,0" strides="1,1"/>
			<input>
				<port id="0">
					<dim>1</dim>
					<dim>768</dim>
					<dim>12</dim>
					<dim>12</dim>
				</port>
			</input>
			<output>
				<port id="3">
					<dim>1</dim>
					<dim>192</dim>
					<dim>12</dim>
					<dim>12</dim>
				</port>
			</output>
			<blobs>
				<weights offset="17617600" size="294912"/>
				<biases offset="17912512" size="384"/>
			</blobs>
		</layer>
		<layer id="157" name="activation_163/Relu" precision="FP16" type="ReLU">
			<input>
				<port id="0">
					<dim>1</dim>
					<dim>192</dim>
					<dim>12</dim>
					<dim>12</dim>
				</port>
			</input>
			<output>
				<port id="1">
					<dim>1</dim>
					<dim>192</dim>
					<dim>12</dim>
					<dim>12</dim>
				</port>
			</output>
		</layer>
		<layer id="158" name="mixed7/concat" precision="FP16" type="Concat">
			<data axis="1"/>
			<input>
				<port id="0">
					<dim>1</dim>
					<dim>192</dim>
					<dim>12</dim>
					<dim>12</dim>
				</port>
				<port id="1">
					<dim>1</dim>
					<dim>192</dim>
					<dim>12</dim>
					<dim>12</dim>
				</port>
				<port id="2">
					<dim>1</dim>
					<dim>192</dim>
					<dim>12</dim>
					<dim>12</dim>
				</port>
				<port id="3">
					<dim>1</dim>
					<dim>192</dim>
					<dim>12</dim>
					<dim>12</dim>
				</port>
			</input>
			<output>
				<port id="4">
					<dim>1</dim>
					<dim>768</dim>
					<dim>12</dim>
					<dim>12</dim>
				</port>
			</output>
		</layer>
		<layer id="159" name="conv2d_164/Conv2D" precision="FP16" type="Convolution">
			<data auto_pad="same_upper" dilations="1,1" group="1" kernel="1,1" output="192" pads_begin="0,0" pads_end="0,0" strides="1,1"/>
			<input>
				<port id="0">
					<dim>1</dim>
					<dim>768</dim>
					<dim>12</dim>
					<dim>12</dim>
				</port>
			</input>
			<output>
				<port id="3">
					<dim>1</dim>
					<dim>192</dim>
					<dim>12</dim>
					<dim>12</dim>
				</port>
			</output>
			<blobs>
				<weights offset="17912896" size="294912"/>
				<biases offset="18207808" size="384"/>
			</blobs>
		</layer>
		<layer id="160" name="activation_164/Relu" precision="FP16" type="ReLU">
			<input>
				<port id="0">
					<dim>1</dim>
					<dim>192</dim>
					<dim>12</dim>
					<dim>12</dim>
				</port>
			</input>
			<output>
				<port id="1">
					<dim>1</dim>
					<dim>192</dim>
					<dim>12</dim>
					<dim>12</dim>
				</port>
			</output>
		</layer>
		<layer id="161" name="conv2d_165/Conv2D" precision="FP16" type="Convolution">
			<data auto_pad="valid" dilations="1,1" group="1" kernel="3,3" output="320" pads_begin="0,0" pads_end="0,0" strides="2,2"/>
			<input>
				<port id="0">
					<dim>1</dim>
					<dim>192</dim>
					<dim>12</dim>
					<dim>12</dim>
				</port>
			</input>
			<output>
				<port id="3">
					<dim>1</dim>
					<dim>320</dim>
					<dim>5</dim>
					<dim>5</dim>
				</port>
			</output>
			<blobs>
				<weights offset="18208192" size="1105920"/>
				<biases offset="19314112" size="640"/>
			</blobs>
		</layer>
		<layer id="162" name="activation_165/Relu" precision="FP16" type="ReLU">
			<input>
				<port id="0">
					<dim>1</dim>
					<dim>320</dim>
					<dim>5</dim>
					<dim>5</dim>
				</port>
			</input>
			<output>
				<port id="1">
					<dim>1</dim>
					<dim>320</dim>
					<dim>5</dim>
					<dim>5</dim>
				</port>
			</output>
		</layer>
		<layer id="163" name="conv2d_166/Conv2D" precision="FP16" type="Convolution">
			<data auto_pad="same_upper" dilations="1,1" group="1" kernel="1,1" output="192" pads_begin="0,0" pads_end="0,0" strides="1,1"/>
			<input>
				<port id="0">
					<dim>1</dim>
					<dim>768</dim>
					<dim>12</dim>
					<dim>12</dim>
				</port>
			</input>
			<output>
				<port id="3">
					<dim>1</dim>
					<dim>192</dim>
					<dim>12</dim>
					<dim>12</dim>
				</port>
			</output>
			<blobs>
				<weights offset="19314752" size="294912"/>
				<biases offset="19609664" size="384"/>
			</blobs>
		</layer>
		<layer id="164" name="activation_166/Relu" precision="FP16" type="ReLU">
			<input>
				<port id="0">
					<dim>1</dim>
					<dim>192</dim>
					<dim>12</dim>
					<dim>12</dim>
				</port>
			</input>
			<output>
				<port id="1">
					<dim>1</dim>
					<dim>192</dim>
					<dim>12</dim>
					<dim>12</dim>
				</port>
			</output>
		</layer>
		<layer id="165" name="conv2d_167/Conv2D" precision="FP16" type="Convolution">
			<data auto_pad="same_upper" dilations="1,1" group="1" kernel="1,7" output="192" pads_begin="0,3" pads_end="0,3" strides="1,1"/>
			<input>
				<port id="0">
					<dim>1</dim>
					<dim>192</dim>
					<dim>12</dim>
					<dim>12</dim>
				</port>
			</input>
			<output>
				<port id="3">
					<dim>1</dim>
					<dim>192</dim>
					<dim>12</dim>
					<dim>12</dim>
				</port>
			</output>
			<blobs>
				<weights offset="19610048" size="516096"/>
				<biases offset="20126144" size="384"/>
			</blobs>
		</layer>
		<layer id="166" name="activation_167/Relu" precision="FP16" type="ReLU">
			<input>
				<port id="0">
					<dim>1</dim>
					<dim>192</dim>
					<dim>12</dim>
					<dim>12</dim>
				</port>
			</input>
			<output>
				<port id="1">
					<dim>1</dim>
					<dim>192</dim>
					<dim>12</dim>
					<dim>12</dim>
				</port>
			</output>
		</layer>
		<layer id="167" name="conv2d_168/Conv2D" precision="FP16" type="Convolution">
			<data auto_pad="same_upper" dilations="1,1" group="1" kernel="7,1" output="192" pads_begin="3,0" pads_end="3,0" strides="1,1"/>
			<input>
				<port id="0">
					<dim>1</dim>
					<dim>192</dim>
					<dim>12</dim>
					<dim>12</dim>
				</port>
			</input>
			<output>
				<port id="3">
					<dim>1</dim>
					<dim>192</dim>
					<dim>12</dim>
					<dim>12</dim>
				</port>
			</output>
			<blobs>
				<weights offset="20126528" size="516096"/>
				<biases offset="20642624" size="384"/>
			</blobs>
		</layer>
		<layer id="168" name="activation_168/Relu" precision="FP16" type="ReLU">
			<input>
				<port id="0">
					<dim>1</dim>
					<dim>192</dim>
					<dim>12</dim>
					<dim>12</dim>
				</port>
			</input>
			<output>
				<port id="1">
					<dim>1</dim>
					<dim>192</dim>
					<dim>12</dim>
					<dim>12</dim>
				</port>
			</output>
		</layer>
		<layer id="169" name="conv2d_169/Conv2D" precision="FP16" type="Convolution">
			<data auto_pad="valid" dilations="1,1" group="1" kernel="3,3" output="192" pads_begin="0,0" pads_end="0,0" strides="2,2"/>
			<input>
				<port id="0">
					<dim>1</dim>
					<dim>192</dim>
					<dim>12</dim>
					<dim>12</dim>
				</port>
			</input>
			<output>
				<port id="3">
					<dim>1</dim>
					<dim>192</dim>
					<dim>5</dim>
					<dim>5</dim>
				</port>
			</output>
			<blobs>
				<weights offset="20643008" size="663552"/>
				<biases offset="21306560" size="384"/>
			</blobs>
		</layer>
		<layer id="170" name="activation_169/Relu" precision="FP16" type="ReLU">
			<input>
				<port id="0">
					<dim>1</dim>
					<dim>192</dim>
					<dim>5</dim>
					<dim>5</dim>
				</port>
			</input>
			<output>
				<port id="1">
					<dim>1</dim>
					<dim>192</dim>
					<dim>5</dim>
					<dim>5</dim>
				</port>
			</output>
		</layer>
		<layer id="171" name="max_pooling2d_7/MaxPool" precision="FP16" type="Pooling">
			<data auto_pad="valid" exclude-pad="true" kernel="3,3" pads_begin="0,0" pads_end="0,0" pool-method="max" strides="2,2"/>
			<input>
				<port id="0">
					<dim>1</dim>
					<dim>768</dim>
					<dim>12</dim>
					<dim>12</dim>
				</port>
			</input>
			<output>
				<port id="1">
					<dim>1</dim>
					<dim>768</dim>
					<dim>5</dim>
					<dim>5</dim>
				</port>
			</output>
		</layer>
		<layer id="172" name="mixed8/concat" precision="FP16" type="Concat">
			<data axis="1"/>
			<input>
				<port id="0">
					<dim>1</dim>
					<dim>320</dim>
					<dim>5</dim>
					<dim>5</dim>
				</port>
				<port id="1">
					<dim>1</dim>
					<dim>192</dim>
					<dim>5</dim>
					<dim>5</dim>
				</port>
				<port id="2">
					<dim>1</dim>
					<dim>768</dim>
					<dim>5</dim>
					<dim>5</dim>
				</port>
			</input>
			<output>
				<port id="3">
					<dim>1</dim>
					<dim>1280</dim>
					<dim>5</dim>
					<dim>5</dim>
				</port>
			</output>
		</layer>
		<layer id="173" name="conv2d_170/Conv2D" precision="FP16" type="Convolution">
			<data auto_pad="same_upper" dilations="1,1" group="1" kernel="1,1" output="320" pads_begin="0,0" pads_end="0,0" strides="1,1"/>
			<input>
				<port id="0">
					<dim>1</dim>
					<dim>1280</dim>
					<dim>5</dim>
					<dim>5</dim>
				</port>
			</input>
			<output>
				<port id="3">
					<dim>1</dim>
					<dim>320</dim>
					<dim>5</dim>
					<dim>5</dim>
				</port>
			</output>
			<blobs>
				<weights offset="21306944" size="819200"/>
				<biases offset="22126144" size="640"/>
			</blobs>
		</layer>
		<layer id="174" name="activation_170/Relu" precision="FP16" type="ReLU">
			<input>
				<port id="0">
					<dim>1</dim>
					<dim>320</dim>
					<dim>5</dim>
					<dim>5</dim>
				</port>
			</input>
			<output>
				<port id="1">
					<dim>1</dim>
					<dim>320</dim>
					<dim>5</dim>
					<dim>5</dim>
				</port>
			</output>
		</layer>
		<layer id="175" name="conv2d_171/Conv2D" precision="FP16" type="Convolution">
			<data auto_pad="same_upper" dilations="1,1" group="1" kernel="1,1" output="384" pads_begin="0,0" pads_end="0,0" strides="1,1"/>
			<input>
				<port id="0">
					<dim>1</dim>
					<dim>1280</dim>
					<dim>5</dim>
					<dim>5</dim>
				</port>
			</input>
			<output>
				<port id="3">
					<dim>1</dim>
					<dim>384</dim>
					<dim>5</dim>
					<dim>5</dim>
				</port>
			</output>
			<blobs>
				<weights offset="22126784" size="983040"/>
				<biases offset="23109824" size="768"/>
			</blobs>
		</layer>
		<layer id="176" name="activation_171/Relu" precision="FP16" type="ReLU">
			<input>
				<port id="0">
					<dim>1</dim>
					<dim>384</dim>
					<dim>5</dim>
					<dim>5</dim>
				</port>
			</input>
			<output>
				<port id="1">
					<dim>1</dim>
					<dim>384</dim>
					<dim>5</dim>
					<dim>5</dim>
				</port>
			</output>
		</layer>
		<layer id="177" name="conv2d_172/Conv2D" precision="FP16" type="Convolution">
			<data auto_pad="same_upper" dilations="1,1" group="1" kernel="1,3" output="384" pads_begin="0,1" pads_end="0,1" strides="1,1"/>
			<input>
				<port id="0">
					<dim>1</dim>
					<dim>384</dim>
					<dim>5</dim>
					<dim>5</dim>
				</port>
			</input>
			<output>
				<port id="3">
					<dim>1</dim>
					<dim>384</dim>
					<dim>5</dim>
					<dim>5</dim>
				</port>
			</output>
			<blobs>
				<weights offset="23110592" size="884736"/>
				<biases offset="23995328" size="768"/>
			</blobs>
		</layer>
		<layer id="178" name="activation_172/Relu" precision="FP16" type="ReLU">
			<input>
				<port id="0">
					<dim>1</dim>
					<dim>384</dim>
					<dim>5</dim>
					<dim>5</dim>
				</port>
			</input>
			<output>
				<port id="1">
					<dim>1</dim>
					<dim>384</dim>
					<dim>5</dim>
					<dim>5</dim>
				</port>
			</output>
		</layer>
		<layer id="179" name="conv2d_173/Conv2D" precision="FP16" type="Convolution">
			<data auto_pad="same_upper" dilations="1,1" group="1" kernel="3,1" output="384" pads_begin="1,0" pads_end="1,0" strides="1,1"/>
			<input>
				<port id="0">
					<dim>1</dim>
					<dim>384</dim>
					<dim>5</dim>
					<dim>5</dim>
				</port>
			</input>
			<output>
				<port id="3">
					<dim>1</dim>
					<dim>384</dim>
					<dim>5</dim>
					<dim>5</dim>
				</port>
			</output>
			<blobs>
				<weights offset="23996096" size="884736"/>
				<biases offset="24880832" size="768"/>
			</blobs>
		</layer>
		<layer id="180" name="activation_173/Relu" precision="FP16" type="ReLU">
			<input>
				<port id="0">
					<dim>1</dim>
					<dim>384</dim>
					<dim>5</dim>
					<dim>5</dim>
				</port>
			</input>
			<output>
				<port id="1">
					<dim>1</dim>
					<dim>384</dim>
					<dim>5</dim>
					<dim>5</dim>
				</port>
			</output>
		</layer>
		<layer id="181" name="mixed9_0/concat" precision="FP16" type="Concat">
			<data axis="1"/>
			<input>
				<port id="0">
					<dim>1</dim>
					<dim>384</dim>
					<dim>5</dim>
					<dim>5</dim>
				</port>
				<port id="1">
					<dim>1</dim>
					<dim>384</dim>
					<dim>5</dim>
					<dim>5</dim>
				</port>
			</input>
			<output>
				<port id="2">
					<dim>1</dim>
					<dim>768</dim>
					<dim>5</dim>
					<dim>5</dim>
				</port>
			</output>
		</layer>
		<layer id="182" name="conv2d_174/Conv2D" precision="FP16" type="Convolution">
			<data auto_pad="same_upper" dilations="1,1" group="1" kernel="1,1" output="448" pads_begin="0,0" pads_end="0,0" strides="1,1"/>
			<input>
				<port id="0">
					<dim>1</dim>
					<dim>1280</dim>
					<dim>5</dim>
					<dim>5</dim>
				</port>
			</input>
			<output>
				<port id="3">
					<dim>1</dim>
					<dim>448</dim>
					<dim>5</dim>
					<dim>5</dim>
				</port>
			</output>
			<blobs>
				<weights offset="24881600" size="1146880"/>
				<biases offset="26028480" size="896"/>
			</blobs>
		</layer>
		<layer id="183" name="activation_174/Relu" precision="FP16" type="ReLU">
			<input>
				<port id="0">
					<dim>1</dim>
					<dim>448</dim>
					<dim>5</dim>
					<dim>5</dim>
				</port>
			</input>
			<output>
				<port id="1">
					<dim>1</dim>
					<dim>448</dim>
					<dim>5</dim>
					<dim>5</dim>
				</port>
			</output>
		</layer>
		<layer id="184" name="conv2d_175/Conv2D" precision="FP16" type="Convolution">
			<data auto_pad="same_upper" dilations="1,1" group="1" kernel="3,3" output="384" pads_begin="1,1" pads_end="1,1" strides="1,1"/>
			<input>
				<port id="0">
					<dim>1</dim>
					<dim>448</dim>
					<dim>5</dim>
					<dim>5</dim>
				</port>
			</input>
			<output>
				<port id="3">
					<dim>1</dim>
					<dim>384</dim>
					<dim>5</dim>
					<dim>5</dim>
				</port>
			</output>
			<blobs>
				<weights offset="26029376" size="3096576"/>
				<biases offset="29125952" size="768"/>
			</blobs>
		</layer>
		<layer id="185" name="activation_175/Relu" precision="FP16" type="ReLU">
			<input>
				<port id="0">
					<dim>1</dim>
					<dim>384</dim>
					<dim>5</dim>
					<dim>5</dim>
				</port>
			</input>
			<output>
				<port id="1">
					<dim>1</dim>
					<dim>384</dim>
					<dim>5</dim>
					<dim>5</dim>
				</port>
			</output>
		</layer>
		<layer id="186" name="conv2d_176/Conv2D" precision="FP16" type="Convolution">
			<data auto_pad="same_upper" dilations="1,1" group="1" kernel="1,3" output="384" pads_begin="0,1" pads_end="0,1" strides="1,1"/>
			<input>
				<port id="0">
					<dim>1</dim>
					<dim>384</dim>
					<dim>5</dim>
					<dim>5</dim>
				</port>
			</input>
			<output>
				<port id="3">
					<dim>1</dim>
					<dim>384</dim>
					<dim>5</dim>
					<dim>5</dim>
				</port>
			</output>
			<blobs>
				<weights offset="29126720" size="884736"/>
				<biases offset="30011456" size="768"/>
			</blobs>
		</layer>
		<layer id="187" name="activation_176/Relu" precision="FP16" type="ReLU">
			<input>
				<port id="0">
					<dim>1</dim>
					<dim>384</dim>
					<dim>5</dim>
					<dim>5</dim>
				</port>
			</input>
			<output>
				<port id="1">
					<dim>1</dim>
					<dim>384</dim>
					<dim>5</dim>
					<dim>5</dim>
				</port>
			</output>
		</layer>
		<layer id="188" name="conv2d_177/Conv2D" precision="FP16" type="Convolution">
			<data auto_pad="same_upper" dilations="1,1" group="1" kernel="3,1" output="384" pads_begin="1,0" pads_end="1,0" strides="1,1"/>
			<input>
				<port id="0">
					<dim>1</dim>
					<dim>384</dim>
					<dim>5</dim>
					<dim>5</dim>
				</port>
			</input>
			<output>
				<port id="3">
					<dim>1</dim>
					<dim>384</dim>
					<dim>5</dim>
					<dim>5</dim>
				</port>
			</output>
			<blobs>
				<weights offset="30012224" size="884736"/>
				<biases offset="30896960" size="768"/>
			</blobs>
		</layer>
		<layer id="189" name="activation_177/Relu" precision="FP16" type="ReLU">
			<input>
				<port id="0">
					<dim>1</dim>
					<dim>384</dim>
					<dim>5</dim>
					<dim>5</dim>
				</port>
			</input>
			<output>
				<port id="1">
					<dim>1</dim>
					<dim>384</dim>
					<dim>5</dim>
					<dim>5</dim>
				</port>
			</output>
		</layer>
		<layer id="190" name="concatenate_2/concat" precision="FP16" type="Concat">
			<data axis="1"/>
			<input>
				<port id="0">
					<dim>1</dim>
					<dim>384</dim>
					<dim>5</dim>
					<dim>5</dim>
				</port>
				<port id="1">
					<dim>1</dim>
					<dim>384</dim>
					<dim>5</dim>
					<dim>5</dim>
				</port>
			</input>
			<output>
				<port id="2">
					<dim>1</dim>
					<dim>768</dim>
					<dim>5</dim>
					<dim>5</dim>
				</port>
			</output>
		</layer>
		<layer id="191" name="average_pooling2d_16/AvgPool" precision="FP16" type="Pooling">
			<data auto_pad="same_upper" exclude-pad="true" kernel="3,3" pads_begin="1,1" pads_end="1,1" pool-method="avg" strides="1,1"/>
			<input>
				<port id="0">
					<dim>1</dim>
					<dim>1280</dim>
					<dim>5</dim>
					<dim>5</dim>
				</port>
			</input>
			<output>
				<port id="1">
					<dim>1</dim>
					<dim>1280</dim>
					<dim>5</dim>
					<dim>5</dim>
				</port>
			</output>
		</layer>
		<layer id="192" name="conv2d_178/Conv2D" precision="FP16" type="Convolution">
			<data auto_pad="same_upper" dilations="1,1" group="1" kernel="1,1" output="192" pads_begin="0,0" pads_end="0,0" strides="1,1"/>
			<input>
				<port id="0">
					<dim>1</dim>
					<dim>1280</dim>
					<dim>5</dim>
					<dim>5</dim>
				</port>
			</input>
			<output>
				<port id="3">
					<dim>1</dim>
					<dim>192</dim>
					<dim>5</dim>
					<dim>5</dim>
				</port>
			</output>
			<blobs>
				<weights offset="30897728" size="491520"/>
				<biases offset="31389248" size="384"/>
			</blobs>
		</layer>
		<layer id="193" name="activation_178/Relu" precision="FP16" type="ReLU">
			<input>
				<port id="0">
					<dim>1</dim>
					<dim>192</dim>
					<dim>5</dim>
					<dim>5</dim>
				</port>
			</input>
			<output>
				<port id="1">
					<dim>1</dim>
					<dim>192</dim>
					<dim>5</dim>
					<dim>5</dim>
				</port>
			</output>
		</layer>
		<layer id="194" name="mixed9/concat" precision="FP16" type="Concat">
			<data axis="1"/>
			<input>
				<port id="0">
					<dim>1</dim>
					<dim>320</dim>
					<dim>5</dim>
					<dim>5</dim>
				</port>
				<port id="1">
					<dim>1</dim>
					<dim>768</dim>
					<dim>5</dim>
					<dim>5</dim>
				</port>
				<port id="2">
					<dim>1</dim>
					<dim>768</dim>
					<dim>5</dim>
					<dim>5</dim>
				</port>
				<port id="3">
					<dim>1</dim>
					<dim>192</dim>
					<dim>5</dim>
					<dim>5</dim>
				</port>
			</input>
			<output>
				<port id="4">
					<dim>1</dim>
					<dim>2048</dim>
					<dim>5</dim>
					<dim>5</dim>
				</port>
			</output>
		</layer>
		<layer id="195" name="conv2d_179/Conv2D" precision="FP16" type="Convolution">
			<data auto_pad="same_upper" dilations="1,1" group="1" kernel="1,1" output="320" pads_begin="0,0" pads_end="0,0" strides="1,1"/>
			<input>
				<port id="0">
					<dim>1</dim>
					<dim>2048</dim>
					<dim>5</dim>
					<dim>5</dim>
				</port>
			</input>
			<output>
				<port id="3">
					<dim>1</dim>
					<dim>320</dim>
					<dim>5</dim>
					<dim>5</dim>
				</port>
			</output>
			<blobs>
				<weights offset="31389632" size="1310720"/>
				<biases offset="32700352" size="640"/>
			</blobs>
		</layer>
		<layer id="196" name="activation_179/Relu" precision="FP16" type="ReLU">
			<input>
				<port id="0">
					<dim>1</dim>
					<dim>320</dim>
					<dim>5</dim>
					<dim>5</dim>
				</port>
			</input>
			<output>
				<port id="1">
					<dim>1</dim>
					<dim>320</dim>
					<dim>5</dim>
					<dim>5</dim>
				</port>
			</output>
		</layer>
		<layer id="197" name="conv2d_180/Conv2D" precision="FP16" type="Convolution">
			<data auto_pad="same_upper" dilations="1,1" group="1" kernel="1,1" output="384" pads_begin="0,0" pads_end="0,0" strides="1,1"/>
			<input>
				<port id="0">
					<dim>1</dim>
					<dim>2048</dim>
					<dim>5</dim>
					<dim>5</dim>
				</port>
			</input>
			<output>
				<port id="3">
					<dim>1</dim>
					<dim>384</dim>
					<dim>5</dim>
					<dim>5</dim>
				</port>
			</output>
			<blobs>
				<weights offset="32700992" size="1572864"/>
				<biases offset="34273856" size="768"/>
			</blobs>
		</layer>
		<layer id="198" name="activation_180/Relu" precision="FP16" type="ReLU">
			<input>
				<port id="0">
					<dim>1</dim>
					<dim>384</dim>
					<dim>5</dim>
					<dim>5</dim>
				</port>
			</input>
			<output>
				<port id="1">
					<dim>1</dim>
					<dim>384</dim>
					<dim>5</dim>
					<dim>5</dim>
				</port>
			</output>
		</layer>
		<layer id="199" name="conv2d_181/Conv2D" precision="FP16" type="Convolution">
			<data auto_pad="same_upper" dilations="1,1" group="1" kernel="1,3" output="384" pads_begin="0,1" pads_end="0,1" strides="1,1"/>
			<input>
				<port id="0">
					<dim>1</dim>
					<dim>384</dim>
					<dim>5</dim>
					<dim>5</dim>
				</port>
			</input>
			<output>
				<port id="3">
					<dim>1</dim>
					<dim>384</dim>
					<dim>5</dim>
					<dim>5</dim>
				</port>
			</output>
			<blobs>
				<weights offset="34274624" size="884736"/>
				<biases offset="35159360" size="768"/>
			</blobs>
		</layer>
		<layer id="200" name="activation_181/Relu" precision="FP16" type="ReLU">
			<input>
				<port id="0">
					<dim>1</dim>
					<dim>384</dim>
					<dim>5</dim>
					<dim>5</dim>
				</port>
			</input>
			<output>
				<port id="1">
					<dim>1</dim>
					<dim>384</dim>
					<dim>5</dim>
					<dim>5</dim>
				</port>
			</output>
		</layer>
		<layer id="201" name="conv2d_182/Conv2D" precision="FP16" type="Convolution">
			<data auto_pad="same_upper" dilations="1,1" group="1" kernel="3,1" output="384" pads_begin="1,0" pads_end="1,0" strides="1,1"/>
			<input>
				<port id="0">
					<dim>1</dim>
					<dim>384</dim>
					<dim>5</dim>
					<dim>5</dim>
				</port>
			</input>
			<output>
				<port id="3">
					<dim>1</dim>
					<dim>384</dim>
					<dim>5</dim>
					<dim>5</dim>
				</port>
			</output>
			<blobs>
				<weights offset="35160128" size="884736"/>
				<biases offset="36044864" size="768"/>
			</blobs>
		</layer>
		<layer id="202" name="activation_182/Relu" precision="FP16" type="ReLU">
			<input>
				<port id="0">
					<dim>1</dim>
					<dim>384</dim>
					<dim>5</dim>
					<dim>5</dim>
				</port>
			</input>
			<output>
				<port id="1">
					<dim>1</dim>
					<dim>384</dim>
					<dim>5</dim>
					<dim>5</dim>
				</port>
			</output>
		</layer>
		<layer id="203" name="mixed9_1/concat" precision="FP16" type="Concat">
			<data axis="1"/>
			<input>
				<port id="0">
					<dim>1</dim>
					<dim>384</dim>
					<dim>5</dim>
					<dim>5</dim>
				</port>
				<port id="1">
					<dim>1</dim>
					<dim>384</dim>
					<dim>5</dim>
					<dim>5</dim>
				</port>
			</input>
			<output>
				<port id="2">
					<dim>1</dim>
					<dim>768</dim>
					<dim>5</dim>
					<dim>5</dim>
				</port>
			</output>
		</layer>
		<layer id="204" name="conv2d_183/Conv2D" precision="FP16" type="Convolution">
			<data auto_pad="same_upper" dilations="1,1" group="1" kernel="1,1" output="448" pads_begin="0,0" pads_end="0,0" strides="1,1"/>
			<input>
				<port id="0">
					<dim>1</dim>
					<dim>2048</dim>
					<dim>5</dim>
					<dim>5</dim>
				</port>
			</input>
			<output>
				<port id="3">
					<dim>1</dim>
					<dim>448</dim>
					<dim>5</dim>
					<dim>5</dim>
				</port>
			</output>
			<blobs>
				<weights offset="36045632" size="1835008"/>
				<biases offset="37880640" size="896"/>
			</blobs>
		</layer>
		<layer id="205" name="activation_183/Relu" precision="FP16" type="ReLU">
			<input>
				<port id="0">
					<dim>1</dim>
					<dim>448</dim>
					<dim>5</dim>
					<dim>5</dim>
				</port>
			</input>
			<output>
				<port id="1">
					<dim>1</dim>
					<dim>448</dim>
					<dim>5</dim>
					<dim>5</dim>
				</port>
			</output>
		</layer>
		<layer id="206" name="conv2d_184/Conv2D" precision="FP16" type="Convolution">
			<data auto_pad="same_upper" dilations="1,1" group="1" kernel="3,3" output="384" pads_begin="1,1" pads_end="1,1" strides="1,1"/>
			<input>
				<port id="0">
					<dim>1</dim>
					<dim>448</dim>
					<dim>5</dim>
					<dim>5</dim>
				</port>
			</input>
			<output>
				<port id="3">
					<dim>1</dim>
					<dim>384</dim>
					<dim>5</dim>
					<dim>5</dim>
				</port>
			</output>
			<blobs>
				<weights offset="37881536" size="3096576"/>
				<biases offset="40978112" size="768"/>
			</blobs>
		</layer>
		<layer id="207" name="activation_184/Relu" precision="FP16" type="ReLU">
			<input>
				<port id="0">
					<dim>1</dim>
					<dim>384</dim>
					<dim>5</dim>
					<dim>5</dim>
				</port>
			</input>
			<output>
				<port id="1">
					<dim>1</dim>
					<dim>384</dim>
					<dim>5</dim>
					<dim>5</dim>
				</port>
			</output>
		</layer>
		<layer id="208" name="conv2d_185/Conv2D" precision="FP16" type="Convolution">
			<data auto_pad="same_upper" dilations="1,1" group="1" kernel="1,3" output="384" pads_begin="0,1" pads_end="0,1" strides="1,1"/>
			<input>
				<port id="0">
					<dim>1</dim>
					<dim>384</dim>
					<dim>5</dim>
					<dim>5</dim>
				</port>
			</input>
			<output>
				<port id="3">
					<dim>1</dim>
					<dim>384</dim>
					<dim>5</dim>
					<dim>5</dim>
				</port>
			</output>
			<blobs>
				<weights offset="40978880" size="884736"/>
				<biases offset="41863616" size="768"/>
			</blobs>
		</layer>
		<layer id="209" name="activation_185/Relu" precision="FP16" type="ReLU">
			<input>
				<port id="0">
					<dim>1</dim>
					<dim>384</dim>
					<dim>5</dim>
					<dim>5</dim>
				</port>
			</input>
			<output>
				<port id="1">
					<dim>1</dim>
					<dim>384</dim>
					<dim>5</dim>
					<dim>5</dim>
				</port>
			</output>
		</layer>
		<layer id="210" name="conv2d_186/Conv2D" precision="FP16" type="Convolution">
			<data auto_pad="same_upper" dilations="1,1" group="1" kernel="3,1" output="384" pads_begin="1,0" pads_end="1,0" strides="1,1"/>
			<input>
				<port id="0">
					<dim>1</dim>
					<dim>384</dim>
					<dim>5</dim>
					<dim>5</dim>
				</port>
			</input>
			<output>
				<port id="3">
					<dim>1</dim>
					<dim>384</dim>
					<dim>5</dim>
					<dim>5</dim>
				</port>
			</output>
			<blobs>
				<weights offset="41864384" size="884736"/>
				<biases offset="42749120" size="768"/>
			</blobs>
		</layer>
		<layer id="211" name="activation_186/Relu" precision="FP16" type="ReLU">
			<input>
				<port id="0">
					<dim>1</dim>
					<dim>384</dim>
					<dim>5</dim>
					<dim>5</dim>
				</port>
			</input>
			<output>
				<port id="1">
					<dim>1</dim>
					<dim>384</dim>
					<dim>5</dim>
					<dim>5</dim>
				</port>
			</output>
		</layer>
		<layer id="212" name="concatenate_3/concat" precision="FP16" type="Concat">
			<data axis="1"/>
			<input>
				<port id="0">
					<dim>1</dim>
					<dim>384</dim>
					<dim>5</dim>
					<dim>5</dim>
				</port>
				<port id="1">
					<dim>1</dim>
					<dim>384</dim>
					<dim>5</dim>
					<dim>5</dim>
				</port>
			</input>
			<output>
				<port id="2">
					<dim>1</dim>
					<dim>768</dim>
					<dim>5</dim>
					<dim>5</dim>
				</port>
			</output>
		</layer>
		<layer id="213" name="average_pooling2d_17/AvgPool" precision="FP16" type="Pooling">
			<data auto_pad="same_upper" exclude-pad="true" kernel="3,3" pads_begin="1,1" pads_end="1,1" pool-method="avg" strides="1,1"/>
			<input>
				<port id="0">
					<dim>1</dim>
					<dim>2048</dim>
					<dim>5</dim>
					<dim>5</dim>
				</port>
			</input>
			<output>
				<port id="1">
					<dim>1</dim>
					<dim>2048</dim>
					<dim>5</dim>
					<dim>5</dim>
				</port>
			</output>
		</layer>
		<layer id="214" name="conv2d_187/Conv2D" precision="FP16" type="Convolution">
			<data auto_pad="same_upper" dilations="1,1" group="1" kernel="1,1" output="192" pads_begin="0,0" pads_end="0,0" strides="1,1"/>
			<input>
				<port id="0">
					<dim>1</dim>
					<dim>2048</dim>
					<dim>5</dim>
					<dim>5</dim>
				</port>
			</input>
			<output>
				<port id="3">
					<dim>1</dim>
					<dim>192</dim>
					<dim>5</dim>
					<dim>5</dim>
				</port>
			</output>
			<blobs>
				<weights offset="42749888" size="786432"/>
				<biases offset="43536320" size="384"/>
			</blobs>
		</layer>
		<layer id="215" name="activation_187/Relu" precision="FP16" type="ReLU">
			<input>
				<port id="0">
					<dim>1</dim>
					<dim>192</dim>
					<dim>5</dim>
					<dim>5</dim>
				</port>
			</input>
			<output>
				<port id="1">
					<dim>1</dim>
					<dim>192</dim>
					<dim>5</dim>
					<dim>5</dim>
				</port>
			</output>
		</layer>
		<layer id="216" name="mixed10/concat" precision="FP16" type="Concat">
			<data axis="1"/>
			<input>
				<port id="0">
					<dim>1</dim>
					<dim>320</dim>
					<dim>5</dim>
					<dim>5</dim>
				</port>
				<port id="1">
					<dim>1</dim>
					<dim>768</dim>
					<dim>5</dim>
					<dim>5</dim>
				</port>
				<port id="2">
					<dim>1</dim>
					<dim>768</dim>
					<dim>5</dim>
					<dim>5</dim>
				</port>
				<port id="3">
					<dim>1</dim>
					<dim>192</dim>
					<dim>5</dim>
					<dim>5</dim>
				</port>
			</input>
			<output>
				<port id="4">
					<dim>1</dim>
					<dim>2048</dim>
					<dim>5</dim>
					<dim>5</dim>
				</port>
			</output>
		</layer>
		<layer id="217" name="avg_pool/Mean" precision="FP16" type="Pooling">
			<data exclude-pad="true" kernel="5,5" pads_begin="0,0" pads_end="0,0" pool-method="avg" rounding-type="ceil" strides="1,1"/>
			<input>
				<port id="0">
					<dim>1</dim>
					<dim>2048</dim>
					<dim>5</dim>
					<dim>5</dim>
				</port>
			</input>
			<output>
				<port id="1">
					<dim>1</dim>
					<dim>2048</dim>
					<dim>1</dim>
					<dim>1</dim>
				</port>
			</output>
		</layer>
		<layer id="218" name="Reshape_/DimData_const" precision="FP16" type="Const">
			<output>
				<port id="1">
					<dim>2</dim>
				</port>
			</output>
			<blobs>
				<custom offset="43536704" size="4"/>
			</blobs>
		</layer>
		<layer id="219" name="Reshape_" precision="FP16" type="Reshape">
			<input>
				<port id="0">
					<dim>1</dim>
					<dim>2048</dim>
					<dim>1</dim>
					<dim>1</dim>
				</port>
				<port id="1">
					<dim>2</dim>
				</port>
			</input>
			<output>
				<port id="2">
					<dim>1</dim>
					<dim>2048</dim>
				</port>
			</output>
		</layer>
		<layer id="220" name="predictions/MatMul" precision="FP16" type="FullyConnected">
			<data out-size="1000"/>
			<input>
				<port id="0">
					<dim>1</dim>
					<dim>2048</dim>
				</port>
			</input>
			<output>
				<port id="3">
					<dim>1</dim>
					<dim>1000</dim>
				</port>
			</output>
			<blobs>
				<weights offset="43536708" size="4096000"/>
				<biases offset="47632708" size="2000"/>
			</blobs>
		</layer>
		<layer id="221" name="predictions/Softmax" precision="FP16" type="SoftMax">
			<data axis="1"/>
			<input>
				<port id="0">
					<dim>1</dim>
					<dim>1000</dim>
				</port>
			</input>
			<output>
				<port id="1">
					<dim>1</dim>
					<dim>1000</dim>
				</port>
			</output>
		</layer>
	</layers>
	<edges>
		<edge from-layer="0" from-port="0" to-layer="1" to-port="0"/>
		<edge from-layer="1" from-port="3" to-layer="2" to-port="0"/>
		<edge from-layer="2" from-port="1" to-layer="3" to-port="0"/>
		<edge from-layer="3" from-port="3" to-layer="4" to-port="0"/>
		<edge from-layer="4" from-port="1" to-layer="5" to-port="0"/>
		<edge from-layer="5" from-port="3" to-layer="6" to-port="0"/>
		<edge from-layer="6" from-port="1" to-layer="7" to-port="0"/>
		<edge from-layer="7" from-port="1" to-layer="8" to-port="0"/>
		<edge from-layer="8" from-port="3" to-layer="9" to-port="0"/>
		<edge from-layer="9" from-port="1" to-layer="10" to-port="0"/>
		<edge from-layer="10" from-port="3" to-layer="11" to-port="0"/>
		<edge from-layer="11" from-port="1" to-layer="12" to-port="0"/>
		<edge from-layer="12" from-port="1" to-layer="13" to-port="0"/>
		<edge from-layer="13" from-port="3" to-layer="14" to-port="0"/>
		<edge from-layer="12" from-port="1" to-layer="15" to-port="0"/>
		<edge from-layer="15" from-port="3" to-layer="16" to-port="0"/>
		<edge from-layer="16" from-port="1" to-layer="17" to-port="0"/>
		<edge from-layer="17" from-port="3" to-layer="18" to-port="0"/>
		<edge from-layer="12" from-port="1" to-layer="19" to-port="0"/>
		<edge from-layer="19" from-port="3" to-layer="20" to-port="0"/>
		<edge from-layer="20" from-port="1" to-layer="21" to-port="0"/>
		<edge from-layer="21" from-port="3" to-layer="22" to-port="0"/>
		<edge from-layer="22" from-port="1" to-layer="23" to-port="0"/>
		<edge from-layer="23" from-port="3" to-layer="24" to-port="0"/>
		<edge from-layer="12" from-port="1" to-layer="25" to-port="0"/>
		<edge from-layer="25" from-port="1" to-layer="26" to-port="0"/>
		<edge from-layer="26" from-port="3" to-layer="27" to-port="0"/>
		<edge from-layer="14" from-port="1" to-layer="28" to-port="0"/>
		<edge from-layer="18" from-port="1" to-layer="28" to-port="1"/>
		<edge from-layer="24" from-port="1" to-layer="28" to-port="2"/>
		<edge from-layer="27" from-port="1" to-layer="28" to-port="3"/>
		<edge from-layer="28" from-port="4" to-layer="29" to-port="0"/>
		<edge from-layer="29" from-port="3" to-layer="30" to-port="0"/>
		<edge from-layer="28" from-port="4" to-layer="31" to-port="0"/>
		<edge from-layer="31" from-port="3" to-layer="32" to-port="0"/>
		<edge from-layer="32" from-port="1" to-layer="33" to-port="0"/>
		<edge from-layer="33" from-port="3" to-layer="34" to-port="0"/>
		<edge from-layer="28" from-port="4" to-layer="35" to-port="0"/>
		<edge from-layer="35" from-port="3" to-layer="36" to-port="0"/>
		<edge from-layer="36" from-port="1" to-layer="37" to-port="0"/>
		<edge from-layer="37" from-port="3" to-layer="38" to-port="0"/>
		<edge from-layer="38" from-port="1" to-layer="39" to-port="0"/>
		<edge from-layer="39" from-port="3" to-layer="40" to-port="0"/>
		<edge from-layer="28" from-port="4" to-layer="41" to-port="0"/>
		<edge from-layer="41" from-port="1" to-layer="42" to-port="0"/>
		<edge from-layer="42" from-port="3" to-layer="43" to-port="0"/>
		<edge from-layer="30" from-port="1" to-layer="44" to-port="0"/>
		<edge from-layer="34" from-port="1" to-layer="44" to-port="1"/>
		<edge from-layer="40" from-port="1" to-layer="44" to-port="2"/>
		<edge from-layer="43" from-port="1" to-layer="44" to-port="3"/>
		<edge from-layer="44" from-port="4" to-layer="45" to-port="0"/>
		<edge from-layer="45" from-port="3" to-layer="46" to-port="0"/>
		<edge from-layer="44" from-port="4" to-layer="47" to-port="0"/>
		<edge from-layer="47" from-port="3" to-layer="48" to-port="0"/>
		<edge from-layer="48" from-port="1" to-layer="49" to-port="0"/>
		<edge from-layer="49" from-port="3" to-layer="50" to-port="0"/>
		<edge from-layer="44" from-port="4" to-layer="51" to-port="0"/>
		<edge from-layer="51" from-port="3" to-layer="52" to-port="0"/>
		<edge from-layer="52" from-port="1" to-layer="53" to-port="0"/>
		<edge from-layer="53" from-port="3" to-layer="54" to-port="0"/>
		<edge from-layer="54" from-port="1" to-layer="55" to-port="0"/>
		<edge from-layer="55" from-port="3" to-layer="56" to-port="0"/>
		<edge from-layer="44" from-port="4" to-layer="57" to-port="0"/>
		<edge from-layer="57" from-port="1" to-layer="58" to-port="0"/>
		<edge from-layer="58" from-port="3" to-layer="59" to-port="0"/>
		<edge from-layer="46" from-port="1" to-layer="60" to-port="0"/>
		<edge from-layer="50" from-port="1" to-layer="60" to-port="1"/>
		<edge from-layer="56" from-port="1" to-layer="60" to-port="2"/>
		<edge from-layer="59" from-port="1" to-layer="60" to-port="3"/>
		<edge from-layer="60" from-port="4" to-layer="61" to-port="0"/>
		<edge from-layer="61" from-port="3" to-layer="62" to-port="0"/>
		<edge from-layer="60" from-port="4" to-layer="63" to-port="0"/>
		<edge from-layer="63" from-port="3" to-layer="64" to-port="0"/>
		<edge from-layer="64" from-port="1" to-layer="65" to-port="0"/>
		<edge from-layer="65" from-port="3" to-layer="66" to-port="0"/>
		<edge from-layer="66" from-port="1" to-layer="67" to-port="0"/>
		<edge from-layer="67" from-port="3" to-layer="68" to-port="0"/>
		<edge from-layer="60" from-port="4" to-layer="69" to-port="0"/>
		<edge from-layer="62" from-port="1" to-layer="70" to-port="0"/>
		<edge from-layer="68" from-port="1" to-layer="70" to-port="1"/>
		<edge from-layer="69" from-port="1" to-layer="70" to-port="2"/>
		<edge from-layer="70" from-port="3" to-layer="71" to-port="0"/>
		<edge from-layer="71" from-port="3" to-layer="72" to-port="0"/>
		<edge from-layer="70" from-port="3" to-layer="73" to-port="0"/>
		<edge from-layer="73" from-port="3" to-layer="74" to-port="0"/>
		<edge from-layer="74" from-port="1" to-layer="75" to-port="0"/>
		<edge from-layer="75" from-port="3" to-layer="76" to-port="0"/>
		<edge from-layer="76" from-port="1" to-layer="77" to-port="0"/>
		<edge from-layer="77" from-port="3" to-layer="78" to-port="0"/>
		<edge from-layer="70" from-port="3" to-layer="79" to-port="0"/>
		<edge from-layer="79" from-port="3" to-layer="80" to-port="0"/>
		<edge from-layer="80" from-port="1" to-layer="81" to-port="0"/>
		<edge from-layer="81" from-port="3" to-layer="82" to-port="0"/>
		<edge from-layer="82" from-port="1" to-layer="83" to-port="0"/>
		<edge from-layer="83" from-port="3" to-layer="84" to-port="0"/>
		<edge from-layer="84" from-port="1" to-layer="85" to-port="0"/>
		<edge from-layer="85" from-port="3" to-layer="86" to-port="0"/>
		<edge from-layer="86" from-port="1" to-layer="87" to-port="0"/>
		<edge from-layer="87" from-port="3" to-layer="88" to-port="0"/>
		<edge from-layer="70" from-port="3" to-layer="89" to-port="0"/>
		<edge from-layer="89" from-port="1" to-layer="90" to-port="0"/>
		<edge from-layer="90" from-port="3" to-layer="91" to-port="0"/>
		<edge from-layer="72" from-port="1" to-layer="92" to-port="0"/>
		<edge from-layer="78" from-port="1" to-layer="92" to-port="1"/>
		<edge from-layer="88" from-port="1" to-layer="92" to-port="2"/>
		<edge from-layer="91" from-port="1" to-layer="92" to-port="3"/>
		<edge from-layer="92" from-port="4" to-layer="93" to-port="0"/>
		<edge from-layer="93" from-port="3" to-layer="94" to-port="0"/>
		<edge from-layer="92" from-port="4" to-layer="95" to-port="0"/>
		<edge from-layer="95" from-port="3" to-layer="96" to-port="0"/>
		<edge from-layer="96" from-port="1" to-layer="97" to-port="0"/>
		<edge from-layer="97" from-port="3" to-layer="98" to-port="0"/>
		<edge from-layer="98" from-port="1" to-layer="99" to-port="0"/>
		<edge from-layer="99" from-port="3" to-layer="100" to-port="0"/>
		<edge from-layer="92" from-port="4" to-layer="101" to-port="0"/>
		<edge from-layer="101" from-port="3" to-layer="102" to-port="0"/>
		<edge from-layer="102" from-port="1" to-layer="103" to-port="0"/>
		<edge from-layer="103" from-port="3" to-layer="104" to-port="0"/>
		<edge from-layer="104" from-port="1" to-layer="105" to-port="0"/>
		<edge from-layer="105" from-port="3" to-layer="106" to-port="0"/>
		<edge from-layer="106" from-port="1" to-layer="107" to-port="0"/>
		<edge from-layer="107" from-port="3" to-layer="108" to-port="0"/>
		<edge from-layer="108" from-port="1" to-layer="109" to-port="0"/>
		<edge from-layer="109" from-port="3" to-layer="110" to-port="0"/>
		<edge from-layer="92" from-port="4" to-layer="111" to-port="0"/>
		<edge from-layer="111" from-port="1" to-layer="112" to-port="0"/>
		<edge from-layer="112" from-port="3" to-layer="113" to-port="0"/>
		<edge from-layer="94" from-port="1" to-layer="114" to-port="0"/>
		<edge from-layer="100" from-port="1" to-layer="114" to-port="1"/>
		<edge from-layer="110" from-port="1" to-layer="114" to-port="2"/>
		<edge from-layer="113" from-port="1" to-layer="114" to-port="3"/>
		<edge from-layer="114" from-port="4" to-layer="115" to-port="0"/>
		<edge from-layer="115" from-port="3" to-layer="116" to-port="0"/>
		<edge from-layer="114" from-port="4" to-layer="117" to-port="0"/>
		<edge from-layer="117" from-port="3" to-layer="118" to-port="0"/>
		<edge from-layer="118" from-port="1" to-layer="119" to-port="0"/>
		<edge from-layer="119" from-port="3" to-layer="120" to-port="0"/>
		<edge from-layer="120" from-port="1" to-layer="121" to-port="0"/>
		<edge from-layer="121" from-port="3" to-layer="122" to-port="0"/>
		<edge from-layer="114" from-port="4" to-layer="123" to-port="0"/>
		<edge from-layer="123" from-port="3" to-layer="124" to-port="0"/>
		<edge from-layer="124" from-port="1" to-layer="125" to-port="0"/>
		<edge from-layer="125" from-port="3" to-layer="126" to-port="0"/>
		<edge from-layer="126" from-port="1" to-layer="127" to-port="0"/>
		<edge from-layer="127" from-port="3" to-layer="128" to-port="0"/>
		<edge from-layer="128" from-port="1" to-layer="129" to-port="0"/>
		<edge from-layer="129" from-port="3" to-layer="130" to-port="0"/>
		<edge from-layer="130" from-port="1" to-layer="131" to-port="0"/>
		<edge from-layer="131" from-port="3" to-layer="132" to-port="0"/>
		<edge from-layer="114" from-port="4" to-layer="133" to-port="0"/>
		<edge from-layer="133" from-port="1" to-layer="134" to-port="0"/>
		<edge from-layer="134" from-port="3" to-layer="135" to-port="0"/>
		<edge from-layer="116" from-port="1" to-layer="136" to-port="0"/>
		<edge from-layer="122" from-port="1" to-layer="136" to-port="1"/>
		<edge from-layer="132" from-port="1" to-layer="136" to-port="2"/>
		<edge from-layer="135" from-port="1" to-layer="136" to-port="3"/>
		<edge from-layer="136" from-port="4" to-layer="137" to-port="0"/>
		<edge from-layer="137" from-port="3" to-layer="138" to-port="0"/>
		<edge from-layer="136" from-port="4" to-layer="139" to-port="0"/>
		<edge from-layer="139" from-port="3" to-layer="140" to-port="0"/>
		<edge from-layer="140" from-port="1" to-layer="141" to-port="0"/>
		<edge from-layer="141" from-port="3" to-layer="142" to-port="0"/>
		<edge from-layer="142" from-port="1" to-layer="143" to-port="0"/>
		<edge from-layer="143" from-port="3" to-layer="144" to-port="0"/>
		<edge from-layer="136" from-port="4" to-layer="145" to-port="0"/>
		<edge from-layer="145" from-port="3" to-layer="146" to-port="0"/>
		<edge from-layer="146" from-port="1" to-layer="147" to-port="0"/>
		<edge from-layer="147" from-port="3" to-layer="148" to-port="0"/>
		<edge from-layer="148" from-port="1" to-layer="149" to-port="0"/>
		<edge from-layer="149" from-port="3" to-layer="150" to-port="0"/>
		<edge from-layer="150" from-port="1" to-layer="151" to-port="0"/>
		<edge from-layer="151" from-port="3" to-layer="152" to-port="0"/>
		<edge from-layer="152" from-port="1" to-layer="153" to-port="0"/>
		<edge from-layer="153" from-port="3" to-layer="154" to-port="0"/>
		<edge from-layer="136" from-port="4" to-layer="155" to-port="0"/>
		<edge from-layer="155" from-port="1" to-layer="156" to-port="0"/>
		<edge from-layer="156" from-port="3" to-layer="157" to-port="0"/>
		<edge from-layer="138" from-port="1" to-layer="158" to-port="0"/>
		<edge from-layer="144" from-port="1" to-layer="158" to-port="1"/>
		<edge from-layer="154" from-port="1" to-layer="158" to-port="2"/>
		<edge from-layer="157" from-port="1" to-layer="158" to-port="3"/>
		<edge from-layer="158" from-port="4" to-layer="159" to-port="0"/>
		<edge from-layer="159" from-port="3" to-layer="160" to-port="0"/>
		<edge from-layer="160" from-port="1" to-layer="161" to-port="0"/>
		<edge from-layer="161" from-port="3" to-layer="162" to-port="0"/>
		<edge from-layer="158" from-port="4" to-layer="163" to-port="0"/>
		<edge from-layer="163" from-port="3" to-layer="164" to-port="0"/>
		<edge from-layer="164" from-port="1" to-layer="165" to-port="0"/>
		<edge from-layer="165" from-port="3" to-layer="166" to-port="0"/>
		<edge from-layer="166" from-port="1" to-layer="167" to-port="0"/>
		<edge from-layer="167" from-port="3" to-layer="168" to-port="0"/>
		<edge from-layer="168" from-port="1" to-layer="169" to-port="0"/>
		<edge from-layer="169" from-port="3" to-layer="170" to-port="0"/>
		<edge from-layer="158" from-port="4" to-layer="171" to-port="0"/>
		<edge from-layer="162" from-port="1" to-layer="172" to-port="0"/>
		<edge from-layer="170" from-port="1" to-layer="172" to-port="1"/>
		<edge from-layer="171" from-port="1" to-layer="172" to-port="2"/>
		<edge from-layer="172" from-port="3" to-layer="173" to-port="0"/>
		<edge from-layer="173" from-port="3" to-layer="174" to-port="0"/>
		<edge from-layer="172" from-port="3" to-layer="175" to-port="0"/>
		<edge from-layer="175" from-port="3" to-layer="176" to-port="0"/>
		<edge from-layer="176" from-port="1" to-layer="177" to-port="0"/>
		<edge from-layer="177" from-port="3" to-layer="178" to-port="0"/>
		<edge from-layer="176" from-port="1" to-layer="179" to-port="0"/>
		<edge from-layer="179" from-port="3" to-layer="180" to-port="0"/>
		<edge from-layer="178" from-port="1" to-layer="181" to-port="0"/>
		<edge from-layer="180" from-port="1" to-layer="181" to-port="1"/>
		<edge from-layer="172" from-port="3" to-layer="182" to-port="0"/>
		<edge from-layer="182" from-port="3" to-layer="183" to-port="0"/>
		<edge from-layer="183" from-port="1" to-layer="184" to-port="0"/>
		<edge from-layer="184" from-port="3" to-layer="185" to-port="0"/>
		<edge from-layer="185" from-port="1" to-layer="186" to-port="0"/>
		<edge from-layer="186" from-port="3" to-layer="187" to-port="0"/>
		<edge from-layer="185" from-port="1" to-layer="188" to-port="0"/>
		<edge from-layer="188" from-port="3" to-layer="189" to-port="0"/>
		<edge from-layer="187" from-port="1" to-layer="190" to-port="0"/>
		<edge from-layer="189" from-port="1" to-layer="190" to-port="1"/>
		<edge from-layer="172" from-port="3" to-layer="191" to-port="0"/>
		<edge from-layer="191" from-port="1" to-layer="192" to-port="0"/>
		<edge from-layer="192" from-port="3" to-layer="193" to-port="0"/>
		<edge from-layer="174" from-port="1" to-layer="194" to-port="0"/>
		<edge from-layer="181" from-port="2" to-layer="194" to-port="1"/>
		<edge from-layer="190" from-port="2" to-layer="194" to-port="2"/>
		<edge from-layer="193" from-port="1" to-layer="194" to-port="3"/>
		<edge from-layer="194" from-port="4" to-layer="195" to-port="0"/>
		<edge from-layer="195" from-port="3" to-layer="196" to-port="0"/>
		<edge from-layer="194" from-port="4" to-layer="197" to-port="0"/>
		<edge from-layer="197" from-port="3" to-layer="198" to-port="0"/>
		<edge from-layer="198" from-port="1" to-layer="199" to-port="0"/>
		<edge from-layer="199" from-port="3" to-layer="200" to-port="0"/>
		<edge from-layer="198" from-port="1" to-layer="201" to-port="0"/>
		<edge from-layer="201" from-port="3" to-layer="202" to-port="0"/>
		<edge from-layer="200" from-port="1" to-layer="203" to-port="0"/>
		<edge from-layer="202" from-port="1" to-layer="203" to-port="1"/>
		<edge from-layer="194" from-port="4" to-layer="204" to-port="0"/>
		<edge from-layer="204" from-port="3" to-layer="205" to-port="0"/>
		<edge from-layer="205" from-port="1" to-layer="206" to-port="0"/>
		<edge from-layer="206" from-port="3" to-layer="207" to-port="0"/>
		<edge from-layer="207" from-port="1" to-layer="208" to-port="0"/>
		<edge from-layer="208" from-port="3" to-layer="209" to-port="0"/>
		<edge from-layer="207" from-port="1" to-layer="210" to-port="0"/>
		<edge from-layer="210" from-port="3" to-layer="211" to-port="0"/>
		<edge from-layer="209" from-port="1" to-layer="212" to-port="0"/>
		<edge from-layer="211" from-port="1" to-layer="212" to-port="1"/>
		<edge from-layer="194" from-port="4" to-layer="213" to-port="0"/>
		<edge from-layer="213" from-port="1" to-layer="214" to-port="0"/>
		<edge from-layer="214" from-port="3" to-layer="215" to-port="0"/>
		<edge from-layer="196" from-port="1" to-layer="216" to-port="0"/>
		<edge from-layer="203" from-port="2" to-layer="216" to-port="1"/>
		<edge from-layer="212" from-port="2" to-layer="216" to-port="2"/>
		<edge from-layer="215" from-port="1" to-layer="216" to-port="3"/>
		<edge from-layer="216" from-port="4" to-layer="217" to-port="0"/>
		<edge from-layer="217" from-port="1" to-layer="219" to-port="0"/>
		<edge from-layer="218" from-port="1" to-layer="219" to-port="1"/>
		<edge from-layer="219" from-port="2" to-layer="220" to-port="0"/>
		<edge from-layer="220" from-port="3" to-layer="221" to-port="0"/>
	</edges>
	<meta_data>
		<MO_version value="2019.1.1-83-g28dfbfd"/>
		<cli_parameters>
			<data_type value="FP16"/>
			<disable_fusing value="False"/>
			<disable_gfusing value="False"/>
			<disable_nhwc_to_nchw value="False"/>
			<disable_resnet_optimization value="False"/>
			<enable_concat_optimization value="False"/>
			<extensions value="DIR"/>
			<framework value="tf"/>
			<generate_deprecated_IR_V2 value="False"/>
			<input_model value="DIR\frozen_model.pb"/>
			<input_model_is_text value="False"/>
			<input_shape value="[1,224,224,3]"/>
			<keep_shape_ops value="False"/>
			<log_level value="ERROR"/>
			<mean_scale_values value="{}"/>
			<mean_values value="()"/>
			<move_to_preprocess value="False"/>
			<output_dir value="DIR"/>
			<placeholder_shapes value="[  1 224 224   3]"/>
			<reverse_input_channels value="False"/>
			<scale_values value="()"/>
			<silent value="False"/>
			<version value="False"/>
			<unset unset_cli_parameters="batch, finegrain_fusing, freeze_placeholder_with_value, input, input_checkpoint, input_meta_graph, model_name, output, saved_model_dir, saved_model_tags, scale, tensorboard_logdir, tensorflow_custom_layer_libraries, tensorflow_custom_operations_config_update, tensorflow_object_detection_api_pipeline_config, tensorflow_operation_patterns, tensorflow_subgraph_patterns, tensorflow_use_custom_operations_config"/>
		</cli_parameters>
	</meta_data>
</net>
